ml/blob_compete/blob1_weights.npz (npz, 73126 bytes, 6 tensors)

w1 (column-major) f4 [8, 128]
00000000: 4489 67bf c72b acbe 7a14 843e 829e 893e
00000010: 5e6a 2fbe bff3 4dbb 4be1 4dbf f747 61bf
00000020: 99d9 ccbe cf3f 53be 2aaa 69be 0160 553f
00000030: 4a1a af3e 1c3e 30be b5cf 073f 6e5d ff3d
00000040: f085 ab3d a47b 80be fc98 a83e 4130 f7be
00000050: 6b07 90bc 589a 853e 1fce bd3d ca96 43be
00000060: 6acc d73e 7cfe aabe d0c5 02be fdcc 523f
00000070: 3e3c 9bbf 52eb 813e b4be 2dc0 8ccd 51be
00000080: 26a7 463d ea1c 13bd 8fab 4a3b 3bf4 e73c
00000090: 6bc3 b73d 5874 16bb 50a1 0640 6e0c 353f
000000a0: 6906 883d 1d7c 0a3e 16e6 a03b edf6 0a3e
000000b0: 3c30 5bbd dc6b d3bb 67fe d3c0 c72b 3a3c
000000c0: f64b 713e 14af f4bd 6917 193c 1b77 cdbd
000000d0: b48d 6fbf f401 6b3e 1a83 393f 6272 0e3e
000000e0: 6964 ac3e 63b8 c5be 8cc2 a93e ef4f 7bbd
000000f0: bf04 25bf 31c9 e33d cacf 33c0 9b80 d0be
00000100: dc97 9bbe 2713 0bbf 4791 10bd 064a 07be
00000110: 311e 1abe ea23 fabc b899 0dc0 711b 87bf
00000120: e880 263f 1ce8 513e d701 95be 571c 20bf
00000130: e5f4 1cbf e0d9 08be 74d7 c8bf a927 9ebd
00000140: 343c 30be 2a24 cebe 07d7 043f d21f 003f
00000150: aee7 97bf 99fd 86be f588 c03d 94e9 d13e
00000160: bda1 f1be ac9a 3bbf 9d82 b2bd b7e2 50bc
00000170: 9305 8d3e 419f 153e 3c9b 19c0 7880 5d3f
00000180: 9ff9 feba 3300 723d 46ab 553e e1e9 d5be
00000190: d87d 593e 97c4 c03d 530d b73f 65ab 11bf
000001a0: de43 bfbe 565e ea3c ce5c 14ba 6ecf a9be
000001b0: a33d fd3c 6810 73bd 36b2 b2be c0bf dfbc
000001c0: b708 433d 32f9 863d 9b68 4dbe e758 5dbf
000001d0: 0fa9 4dbf 4efa 29be 77d1 1cc0 852e 9b3e
000001e0: 3778 523e a13a 21bf 449c e2bd b90b 9e3e
000001f0: 92f4 5f3f c60a 0a3e e2e7 f6bf dae8 ea3d
00000200: b084 f2be 1ebc 1cbe e8ba 14bd 300b 8bbf
00000210: b6ca 613c 26c0 813d 2825 12bf 4522 113e
00000220: e1d9 2e3e 9704 953d dcf1 b4bd 614f e6bf
00000230: 500f 41be b73b 2cbe dc4d 0940 324b c8bd
00000240: acde 09bd 55fe af3d bc5a bfbc dd38 86c0
00000250: 756c 44bd e828 313d be85 e03f 2574 cc3c
00000260: 9819 5d3e 0cd3 08be 6287 23bd 3e64 e33d
00000270: dc4e 083f f982 6b3d 95e7 3340 438d 29bf
00000280: 499f 613e 4cdf 03bf 830f 48bd 5e48 86bf
00000290: 6552 15be 2ecd 19bd 51df 53c0 a09b 383f
000002a0: 323a d63d bf3c 3dbd 8912 1e3b e3d0 353f
000002b0: 4193 cf3e e3c4 4c3e 78b1 b13f 206b 3f3d
000002c0: c239 71be 2a10 29be cf9b 0b3e f661 04bf
000002d0: 5349 3e3e 2297 86be d080 64bf 7c56 dcbe
000002e0: d53e 393c e843 54bf ab11 07be e972 bbbd
000002f0: f368 093e f52f 1a3e 54ea 8dbe 48ed e1be
00000300: ca83 8fbe 6592 393e 9d90 fb3c 6bf1 853e
00000310: 62a2 ddbe db09 ac3d 9f82 3fbf 67e7 ebbd
00000320: 65bb 8d3d 018f b43e df1e 163d fc7e 0abd
00000330: c21c 94bf 7966 d3bd 227c 65bf f39c 613d
00000340: 3c03 34bf a927 4fbe 1b50 25bd 95e1 a9bd
00000350: 222c 14bf af8c 14bd 7eca 8fbe d643 7c3c
00000360: 17b2 ec3c 08fa cc3e 1187 99be b7e6 df3c
00000370: 686f 5d3e 1aeb 753a 209d 153f 0607 45bf
00000380: f6d7 693e bccc 3e3c c7ca 92bd 3434 a3bc
00000390: a731 2bbe b00e 83be 38da 72bf cff1 333e
000003a0: 484d d33e 1258 a8be c989 e03c a9cb 1a3e
000003b0: f06e 213d 2de1 bd3d f0ac 92bf 89d3 083d
000003c0: 4f53 293e 5d23 0dbe 2a3c 41bd ac2b d03d
000003d0: 2f84 fc3e 0a90 83be a739 bbbf 0664 8e3d
000003e0: 4e11 d73d aa1b 913e 2569 603d 81b2 5d3e
000003f0: b63a 36bf 4bd8 f83d fb95 98bf 6f19 723d
-0.90443826 -0.3362715 0.25796872 0.26878744 -0.1713042 -0.0031425802 -0.80421895 -0.88000435
-0.40009764 -0.2062981 -0.22818819 0.83349615 0.34199744 -0.17211193 0.5305131 0.12468992
0.08375156 -0.2509433 0.32929218 -0.48279002 -0.017581662 0.26094317 0.0926783 -0.1910049
0.42148143 -0.3339728 -0.12770772 0.8234404 -1.212776 0.25374848 -2.7147646 -0.20488566
0.04849925 -0.035916246 0.003092501 0.0283147 0.0897282 -0.002295753 2.1035957 0.7072209
0.06641848 0.13523908 0.004910241 0.13570757 -0.053512797 -0.006452067 -6.624805 0.011362976
0.23564133 -0.11947456 0.00934396 -0.10032483 -0.93575597 0.22949964 0.7246567 0.13910821
0.33670357 -0.38617238 0.3315624 -0.061355527 -0.64460367 0.111223586 -2.8095574 -0.40723118
-0.30389297 -0.543261 -0.035294797 -0.13211831 -0.1505058 -0.030534703 -2.2125072 -1.055525
0.65040445 0.20498699 -0.29102966 -0.62543243 -0.6131118 -0.13364363 -1.5690751 -0.07722408
-0.17210466 -0.40261966 0.51890606 0.50048554 -1.1867578 -0.26365355 0.094011225 0.40998518
-0.4719371 -0.73282886 -0.08716319 -0.0127493655 0.27543315 0.14611532 -2.4000998 0.8652415
-0.0019453055 0.05908222 0.20866117 -0.41779998 0.21239412 0.094124965 1.4300941 -0.5690215
-0.37356466 0.028609436 -0.0005659581 -0.3316607 0.03091318 -0.059341818 -0.3490159 -0.027313113
0.047615733 0.06590499 -0.20059435 -0.8646378 -0.8033609 -0.1659939 -2.4502847 0.3030893
0.20553671 -0.62980086 -0.110649616 0.3086832 0.8748256 0.13480672 -1.9289515 0.11470194
-0.47366858 -0.15306136 -0.03631106 -1.0862789 0.01378124 0.063354775 -0.57087946 0.14173229
0.17075302 0.07276266 -0.088351935 -1.7992975 -0.18853498 -0.16819654 2.1453772 -0.09779967
-0.033659622 0.08593432 -0.023358695 -4.1944413 -0.047954995 0.043251902 1.7540815 0.024957726
0.21591794 -0.13361758 -0.039924033 0.11103104 0.5324533 0.057497952 2.8110096 -0.66231173
0.22033419 -0.515126 -0.048842918 -1.0490835 -0.14582212 -0.03754919 -3.3105052 0.72112465
0.104603186 -0.04620051 0.0024119935 0.7102186 0.40542033 0.19996981 1.3882284 0.04673302
-0.23557189 -0.16510072 0.13633655 -0.51711977 0.18582658 -0.2628718 -0.8925905 -0.43034732
0.011306484 -0.82916117 -0.13190334 -0.09152777 0.13418941 0.15057357 -0.2771784 -0.44126344
-0.28030235 0.18122251 0.030708605 0.2616075 -0.4328795 0.08400317 -0.74808687 -0.11518746
0.06920508 0.35265353 0.036650535 -0.033812508 -1.1571276 -0.103222795 -0.89642537 0.05508132
-0.70317435 -0.20229973 -0.040359598 -0.082949795 -0.5787984 -0.03626698 -0.28084177 0.015397033
0.028893514 0.4003451 -0.2998586 0.027331693 0.2162453 0.0009381041 0.5844288 -0.7696384
0.22836289 0.011645492 -0.07167583 -0.019922353 -0.1671816 -0.25597143 -0.94864225 0.17572711
0.41269898 -0.32879692 0.027409451 0.15116753 0.03941244 0.092714645 -1.1459026 0.03340486
0.16535686 -0.13783021 -0.047176518 0.1016458 0.49319598 -0.2569583 -1.4626969 0.06952672
0.105013475 0.28341419 0.054787774 0.21650125 -0.71183336 0.121506296 -1.192077 0.059106287

b1 f4 [128]
00000000: 0e1f 04bf aceb 1dbf 645e c83e 60a5 503b
00000010: 9f75 9f3e 1a42 833e 42eb 5b3e 49f9 54bd
00000020: a2fb 1fbe 1371 5c3e 4260 a2be b6e6 3cbd
00000030: e774 bfbe f466 d73e c07d 9a3d 3753 99be
00000040: 5d47 2b3f cc72 2b3e 6c8d b73e 5a1b 59be
00000050: 53f3 c53e 4391 01bf c6e4 acbd c237 7d3e
00000060: 0084 ac3e 6df7 813e 1f71 2a3f ba6f 8abe
00000070: c4d2 ee3b 155b 183f 5fbe a73d a1e7 ce3d
00000080: 2b7a 083f 5b37 80be b1fe d33d 1272 97be
00000090: cffd 6b3e be78 323f bbf2 c53d 334e 5c3e
000000a0: 4565 8cbd 7faf 00be f986 a3bc e55c 67be
000000b0: 9b3d 6bbd f4ce ad3e e141 78be 77f3 a2be
000000c0: 8d4a 94be 0a22 ca3d 1e80 8ebe 8f8d 0a3f
000000d0: 5327 f03e b64b 143e 31ea 093d 9071 2cbf
000000e0: 7146 953e ba77 123f a798 503e 9adf 023e
000000f0: b12b 1fbf e267 193f cd20 673e 726a c739
00000100: b33d 183f 4e26 623e bb94 d1bd 2439 f63e
00000110: bb61 f53c 2c46 7e3d f630 363e 6381 d53e
00000120: 0eaf 06bf 4e50 38bf bb9f 93be 456a b0be
00000130: 81de 9d3e c8f4 10be 3935 0ebf 0fb3 d03c
00000140: 8a24 64be a664 f7be 2f06 2e3e a813 c8be
00000150: 3955 b1be 7684 f9be daed 703e a9d4 053f
00000160: 6c95 46bf 506d a63e a4b7 1fbf 6a60 bebe
00000170: 7f95 37bd 8d34 1b3e 7005 42be bc47 3c3e
00000180: 055c cf3e 4e97 a63e 78eb cbbe 74a0 44bf
00000190: b2f1 3dbf 3792 0d3f 4814 75be 96b1 99be
000001a0: 8946 943e 1de9 42be 7e2e 16bf db6e 8b3e
000001b0: ce96 d8be ad71 dd3e 9f2c 9abb f87e e8be
000001c0: 89bf 08bf 9ba1 863e dda0 31bd af50 c03c
000001d0: af08 4fbe 1508 a23c 8955 723e 69ec adbe
000001e0: 1bf7 9d3a ef8f d6be a499 97be e8b3 0bbf
000001f0: 0a5f ea3e 88d7 e13d 030f e63d 6e7b 8dbc
-0.51609886 -0.6168773 0.39134514 0.0031836852 0.31144425 0.2563637 0.21476462 -0.05199555
-0.15623334 0.2152751 -0.31714064 -0.04611846 -0.37393877 0.42070735 0.07543516 -0.299463
0.66905767 0.1674301 0.35850084 -0.2120184 0.38662204 -0.50612277 -0.084420726 0.24728301
0.33694458 0.25384083 0.6657886 -0.27038366 0.007288309 0.5951398 0.08190607 0.101027735
0.53311414 -0.25042233 0.10351313 -0.29579216 0.23046039 0.6971549 0.09665438 0.21514206
-0.06855253 -0.12566946 -0.01996182 -0.2259403 -0.0574318 0.33946955 -0.24243881 -0.31826374
-0.28963128 0.09869774 -0.2783212 0.5412225 0.46905002 0.14482006 0.033670608 -0.6736078
0.29155305 0.5721394 0.20370732 0.1278061 -0.6217604 0.5992414 0.22571106 0.00038035546
0.59469146 0.22084925 -0.10233446 0.4809047 0.029953828 0.06207864 0.17792115 0.41700277
-0.5261086 -0.71997535 -0.28832802 -0.34456077 0.3083382 -0.14155877 -0.5554996 0.025476007
-0.22279564 -0.48318976 0.16994546 -0.39077497 -0.34635332 -0.48733872 0.23528233 0.5227762
-0.7757175 0.32505274 -0.6238959 -0.37182933 -0.044820305 0.15156765 -0.18947387 0.1838674
0.40499893 0.3253731 -0.39828086 -0.7680733 -0.7419692 0.5530123 -0.23933518 -0.300183
0.28960064 -0.19034238 -0.5866469 0.27233014 -0.42302555 0.4325079 -0.0047050263 -0.4540937
-0.5341726 0.2629517 -0.0433663 0.023475973 -0.20218156 0.019779244 0.23665442 -0.3396943
0.0012051793 -0.41906688 -0.29609406 -0.5457139 0.45775634 0.110274374 0.11233332 -0.01727077

w2 (column-major) f4 [128, 128]
00000000: c594 ebbc 5b22 27bf edba a5bd 5875 41bf
00000010: 0897 bb3d 5fb9 c5be 8957 39be 3a8e 453e
00000020: 4b05 afbf 182c 853c 8b39 d0bd 1cd0 153e
00000030: b83f 3e3e 943b 643e 8774 b1be 81b9 30be
00000040: 8bc6 413e 0ea6 f0bf 37c1 c4bf 0580 2fbf
00000050: d60b 32bf bec3 613c 2838 ba3e 8685 1d3f
00000060: dc53 013e facd 4dbe f7cc ac3d b96f c8bf
00000070: 5ffb 143d 538b 5d3e 8ae9 ae3d 621b 15be
00000080: 5cb0 4a3d 501f ac3e 7899 1dbd f18d debd
00000090: 07c1 cc3d c6c5 6b3e 860e 6cbd 36f5 123f
000000a0: cd3a 353e 78f2 ccbe cb82 aabe e30f 97bf
000000b0: 387e cb3e c892 dbbc b024 15bf 295d f8bf
000000c0: cba2 e8bd db92 6d3f f97d 49be d70e 0d3e
000000d0: 4e60 953e 7162 173e de81 a7bd 5ef7 25c0
000000e0: 2cfe 5ebd 4be7 043f 6e82 8b3c 3b7e 663f
000000f0: 1ac4 80bd 649a 89bd 9306 26be eb34 c3be
00000100: ed9a 523e 5116 c6be e60e 703f 863d 163e
00000110: 3972 e1bf fb5c ccbf 4efb 323b 814e 893e
00000120: d057 10bf ac42 d7be 7595 47bf 26c1 803d
00000130: 9044 65bf fb9e d83d c54f 81bf 96a4 1cbf
00000140: 6045 14bf 9036 8cbe b5ce 783e 2be0 403e
00000150: e2e5 6cbf a186 37bf c03d 643e 5a79 003f
00000160: da44 f6be 67ca 0cbf b1bb 7dbd 9c30 01bf
00000170: 5ca1 8ebf 608f 58bf 3036 ce3e 5bb7 c8be
00000180: 4ca6 fc3e 3693 a8be 30b3 5d3c bcc3 8fbe
00000190: 7227 e4be 2fa3 a53d fd9d 0d3e 833d edbb
000001a0: 2c7f 8d3d 9487 cabf 953c afbe be34 ba3e
000001b0: c1c6 0abf 42ab 10bf 87f3 3b3e ac92 5cbe
000001c0: f6ce 113d a6b7 69bd dcb0 c83d 4c20 4c3e
000001d0: f1d6 09be f347 3d3e e8b2 9dbd c21d e0bd
000001e0: ef1d f83d 3a19 e6bd 0b68 2dbe bcba 353e
000001f0: d3a1 db3c 3389 f2be 4c47 763e 6047 70bf
00000200: f01c 99be d7ff e5bf df4c 6e3e b497 86bf
00000210: cd3f 77be 8359 5ebf 286d 87be 0d4c 82bd
00000220: 4c20 00be 32aa 843c 3db4 b3bf f9a1 f63e
00000230: 464a bcbd 1628 23be d3fe 17be 2506 603e
00000240: 54b4 8c3e 8a7f 2fbf e913 a6bf fb28 4cbe
00000250: ca69 0a3e 306f 06be 8e06 94be 7f05 4b3e
00000260: ac05 01bf 6a88 6dbe d15b 1a3d 7aa6 9bbe
00000270: 4bf9 0abe 1012 73bd 5dff 4b3d f68a 21bf
00000280: aa6f 3f3f ec89 08be c873 653d f64b 693d
00000290: ffa1 8fbe b559 363e adfd 823e 097f f1be
000002a0: 0403 143f 491c 293c 0caf c73e 619a 19bf
000002b0: fa37 173e 472f 1f3e 39dd d83d 4902 46be
000002c0: 53a0 a5be f480 0dbf 4173 2e3d 4f59 703e
000002d0: 2f7a 30be 67c5 7d3c 939c 1bbe aaeb 663d
000002e0: 4cb8 86bf 1c29 b9be 6b68 393e ecf4 2abe
000002f0: 5c7e b93d d141 06be c93c 4ebe 01f2 48be
00000300: 9eaa 87bf 6ab3 eabe ce96 7c3d 8907 a23d
00000310: d0f8 90be dfc2 083f 00dd 313e 7588 0cbd
00000320: 8d03 d3bd 7210 5ebf 24ac 16bf a90f 89bf
00000330: e98a 0a3e d1d0 d6be 3ab5 9bbf 69f6 d0bd
00000340: b35d 08c0 fbd2 e7be 8535 83be 5ac3 4abf
00000350: ece3 8c3d ea2b 1dbe b597 9fbd bd28 64be
00000360: 3dc1 39bf 4abe ed3e 975c 9dbd 58f7 2fc0
00000370: e228 edbe 50ac b7bd 0417 a5bd 91b2 8bbe
00000380: 4bab f7bc 70f3 09bf 6c66 cbbe 5ee0 efbf
00000390: 6ae4 2b3e de4d fcbd dbfd 0e3e b628 923d
000003a0: 89db 563d 205f 3abe 6db6 fe3c 4793 92be
000003b0: d3d0 22be e19d 993e f97c 69bf 4826 3abf
000003c0: 0fca 8dbe 9682 ca3e b2dc 763e e7a7 bb3e
000003d0: ff4a 56bd a689 42bf fa5a a43b bae2 0abf
000003e0: ef74 81be ef48 193f b144 50be 8a08 2bbe
000003f0: 9e6c 6b3e 1000 b73d 60a2 de3e 24ce 36bf
-0.028757462 -0.652868 -0.08092294 -0.7556968 0.09159666 -0.3861799 -0.18099798 0.19292536
-1.367349 0.016256377 -0.101672255 0.14630169 0.18578994 0.22288352 -0.34659216 -0.17258264
0.18923394 -1.8800676 -1.5371464 -0.6855472 -0.6954931 0.013779579 0.3637097 0.61531866
0.12629646 -0.20098105 0.084375314 -1.5659095 0.03637254 0.21635179 0.08540638 -0.14561227
0.049484596 0.3361764 -0.038476437 -0.10866917 0.099977545 0.23024663 -0.057631038 0.5740541
0.17698212 -0.4002874 -0.33302912 -1.1801723 0.39744735 -0.02680339 -0.58259106 -1.940343
-0.11359175 0.9280221 -0.19676961 0.13775192 0.29175037 0.14783646 -0.08179067 -2.593223
-0.054441616 0.51915425 0.017029967 0.9003636 -0.062874034 -0.06718901 -0.16213445 -0.3812631
0.20566912 -0.386889 0.93772733 0.14671907 -1.7612983 -1.5965875 0.0027310434 0.26817706
-0.5638399 -0.42043054 -0.7796243 0.0628684 -0.89557743 0.10577198 -1.0102469 -0.6118864
-0.5791836 -0.27385378 0.24297602 0.18835513 -0.92538273 -0.716898 0.22289181 0.5018517
-0.48099405 -0.5499634 -0.061946575 -0.504648 -1.1142993 -0.8459377 0.40275717 -0.3920239
0.49345624 -0.32924813 0.013531491 -0.2807902 -0.44561344 0.080877654 0.13829799 -0.007239999
0.06909022 -1.5822625 -0.34225908 0.36368364 -0.54209524 -0.5651132 0.18354617 -0.21540326
0.035597764 -0.057059906 0.09799358 0.19934195 -0.134609 0.18484478 -0.07700139 -0.10943176
0.121150844 -0.1123528 -0.1693422 0.17747015 0.026810562 -0.473703 0.24050635 -0.9385891
-0.2990489 -1.7968701 0.23271511 -1.0515046 -0.24145432 -0.86855334 -0.26450467 -0.06362162
-0.1251232 0.016194437 -1.4039379 0.4817045 -0.09193854 -0.1593326 -0.14843301 0.21877344
0.2748133 -0.68553984 -1.2974826 -0.19937508 0.13516918 -0.13128352 -0.2891125 0.19826315
-0.5039928 -0.23196569 0.03768522 -0.3040045 -0.1357166 -0.059343398 0.04980408 -0.6310266
0.7477976 -0.13333863 0.05601862 0.056957208 -0.2805328 0.17807658 0.25584164 -0.47167233
0.578171 0.010321685 0.39000738 -0.6000119 0.14767447 0.15545379 0.1058907 -0.19336809
-0.3234888 -0.5527489 0.042590383 0.23471569 -0.1723411 0.015488959 -0.15196447 0.05637709
-1.0524993 -0.36164176 0.18106239 -0.16694993 0.09057304 -0.13111044 -0.20140375 -0.19623567
-1.0598943 -0.45840007 0.061667256 0.079115935 -0.2831483 0.5342235 0.17369461 -0.034309823
-0.10303412 -0.86743844 -0.58856416 -1.0707904 0.13529553 -0.4195619 -1.2164681 -0.10203249
-2.130719 -0.45278153 -0.2562677 -0.7920433 0.0687941 -0.15348783 -0.07792608 -0.22281165
-0.72560483 0.46434242 -0.07683676 -2.7494717 -0.46320254 -0.08968413 -0.080610305 -0.27284673
-0.030233046 -0.5388708 -0.3972658 -1.8740346 0.16786352 -0.123195395 0.13964026 0.07136671
0.05245546 -0.1820035 0.031092847 -0.2862799 -0.15899973 0.30003265 -0.9120632 -0.7271466
-0.2769322 0.39552754 0.24107626 0.36651537 -0.052317616 -0.75991285 0.005015728 -0.5425221
-0.25284526 0.5987691 -0.20338704 -0.16702476 0.22990653 0.08935559 0.43483257 -0.71408296

b2 f4 [128]
00000000: 492b ef3e b4fe 6ebe 7295 553f ff1a 9e3e
00000010: c1a0 2ebd 0431 8c3e 6f5b db3e 2805 eebd
00000020: ad45 30bd c78d e4bd 2f64 adbd 758d f73d
00000030: eb52 2a3d fa4c 523f 04a7 443f 62b1 82be
00000040: 8dc1 993a bfa9 c73c 2507 15be 7246 a7bd
00000050: dfe1 bd3e 7eba 033f 9788 68bc 2491 31be
00000060: 421b 9bbd 7b0e a53e b8b1 74bd ea19 90bd
00000070: 7b08 833e 119c a43d 38c9 bbbd 8181 4fbd
00000080: d4e4 96bc 80df a0bd 160a 6fbd 803e 0f3f
00000090: d8e1 ceba 8e94 0dbe 6872 773e 06d3 203f
000000a0: be38 bfbe 4590 f93e 2aa1 41be 527e 723e
000000b0: f63d 0db8 ce08 80bd 6507 b83d 3e44 03be
000000c0: 0ec7 893e 1df7 4e3e a6d5 833d 1b45 94be
000000d0: c859 513e 7f7c b3be fa25 39be a405 553d
000000e0: 3156 6ebe dafe e8bd 83fe 2b3e b800 df3e
000000f0: 93e9 c63e 0237 0a3f 2e7e b9bd 88dc 4f3d
00000100: 75b5 c23d d42a 483f fcd8 cb3e c3d5 15be
00000110: e36c 18be 7803 bebd 4839 bd3e 160c 483d
00000120: 67c4 debd 4092 4dbd ce1b a43c c079 d83e
00000130: 44c2 2dbe 1c85 bfbd ec2c 5cbd 11a3 1cbd
00000140: 219a c03e f475 1b3c 9862 2a3d 592c 193c
00000150: 4d34 a2be d45e 00bd fd8a 9dbd 00e3 1abe
00000160: 58fd 313f 19d8 5ebd 3b5d 653d baa1 d1bd
00000170: 32b2 ff3e fbdb 193f 013d 373e 7ba0 9d3d
00000180: d322 373f fb5f 413f a131 7fbd 2a15 6b3d
00000190: c85a 043f 26a8 8a3d 1d7b a03d afec 45be
000001a0: 6dba acbd 83a4 d73e c9b0 08be 2087 093f
000001b0: ba13 78bd 8334 1bbd 6baa 11bf bac4 743d
000001c0: b03f 06bc e5c0 a33d 2f47 81be 9b1c 3ebe
000001d0: 87f6 6dbe c608 21be 006a 3fbe 84af 17bd
000001e0: bd82 ea3c 0150 d13e 89bb 44bd 73f8 173f
000001f0: ef3c 193e ac4d 293e c524 a73e 6765 bd3d
0.4671271 -0.23339349 0.8343116 0.3087997 -0.042633776 0.27381146 0.42843196 -0.11622077
-0.043035198 -0.111598544 -0.08466374 0.12087528 0.041582983 0.82148707 0.76817346 -0.25525957
0.0011730656 0.024372933 -0.14553507 -0.08167733 0.37086388 0.5145644 -0.014192722 -0.17340523
-0.075735584 0.3223761 -0.0597398 -0.07036193 0.25592408 0.0803758 -0.09169239 -0.050660614
-0.01841966 -0.07855129 -0.058359228 0.5595474 -0.0015783859 -0.138262 0.24164736 0.62821996
-0.37347978 0.4874288 -0.18909135 0.23681 -3.3674725e-05 -0.06251679 0.089857854 -0.12819001
0.2690968 0.20211454 0.064372346 -0.28958973 0.20444405 -0.3505592 -0.18080893 0.052007332
-0.23275067 -0.11376734 0.16796307 0.43555236 0.38850078 0.53990185 -0.0905727 0.050747424
0.095072664 0.7819035 0.39813983 -0.14632325 -0.14885287 -0.09278005 0.36957765 0.04883965
-0.108773045 -0.050188303 0.02003279 0.42280388 -0.16968638 -0.093515605 -0.05375378 -0.03824145
0.3761759 0.009488571 0.041597933 0.009348952 -0.31680527 -0.031340435 -0.076925255 -0.15125656
0.69527197 -0.054405306 0.055997115 -0.10235925 0.4994064 0.6010129 0.17894365 0.07696625
0.7153751 0.7553708 -0.06230319 0.05739323 0.5170102 0.06770353 0.07835982 -0.19328569
-0.084339954 0.421177 -0.13348688 0.5372181 -0.060565688 -0.037891876 -0.5690066 0.059757926
-0.008193895 0.07995776 -0.2524962 -0.185656 -0.23238574 -0.15726003 -0.1869278 -0.03703262
0.028626794 0.4088135 -0.04803041 0.5936348 0.1496465 0.16533536 0.3264524 0.092478566

w3 (column-major) f4 [128, 2]
00000000: 1690 e23e 7978 aabe 5558 533e 2cc7 c13e
00000010: bcfc fb3c 5fde 84bf a91f 053e b15d 39bd
00000020: d077 903e e35d f6bc ea44 3cbd f7af 123f
00000030: 7cd2 6fbf 408d 333e fd37 743e d4fe 4e3f
00000040: 9cf1 5b3d df09 bebe b29e 533e d661 bcbe
00000050: 61b2 333f 284d 393e c304 903d 1d8a 45bb
00000060: 5e03 c4bc da72 f33d 1979 453f ed78 a3bf
00000070: 39d8 363e 3ea5 3bbf 7753 5bbc 2e47 5abf
00000080: 12fb 423e 0061 aebe f701 653f 56ef 3c3e
00000090: fdc3 53bd 4d33 26bd a7fb b23e f040 d23e
000000a0: 4f07 d13f 6c59 243e 71f3 fbbd fe6e 343d
000000b0: dfa2 633c 79a9 e0bc 44a4 4abf d608 a3be
000000c0: 7d39 8a3e 9d41 5dbe ac8d 7ebd ae74 38bf
000000d0: 7f88 813f 00d2 69be 0ff5 933f f5c9 9db8
000000e0: 86d8 8cbe ec6f 0bbd 470d 2c3f 7e79 d2be
000000f0: a3b0 803e 128e a33e 23d8 883f 19df f73d
00000100: f838 78bf 9dd6 213f 7a55 a93e ab69 183c
00000110: ee55 c2bc 7654 fabe 2184 c33d e52f 09bf
00000120: 8968 bc3c 1841 7abd cd13 a33d ac75 e13e
00000130: f56f afbe ba1c 8b3c c24b 4bbe 601e 10bf
00000140: e1dc b83e 2bea a0bd 5623 7d3f 5571 45be
00000150: eeb4 7f3f 0ea4 41bc 71a0 813b 5bb1 5fbf
00000160: 9790 6e3e 4354 c4be 465a 22bf 7fbe bbba
00000170: 712e 2b3f d53f 383e a31c 33be 2bf7 45bf
00000180: eacd b53e fa56 9a3e 66fe 803c e3de 31bf
00000190: 5865 da3d dfc0 4c3d 0c01 023f 1043 b13f
000001a0: 3986 9c3f f107 473e 6193 95bb d6aa 313e
000001b0: bea4 ce3f a6b0 b43d 6995 acbe 8084 86be
000001c0: 5101 97ba 7fd1 c33f 8219 f5bd 4279 1b3e
000001d0: b9ab 4dbf 01d6 dcbe d3b8 9c3f d2c1 d1bf
000001e0: b653 d23d 0be4 003e e079 81be f1df 013f
000001f0: 40b3 573f 6429 7f3e afe3 b83e 9bc5 75bc
00000200: 7ce9 ef3e f03a b23f b38e 493e f84e ee3e
00000210: ca32 c3bc 5488 2bbd f5ae b03e 2c00 3cbd
00000220: 34e5 b53e 3e8a 90bc 022a 4d3d 5cad 653f
00000230: d00c 0c40 69c5 363e 709f 3d3e 025e df3f
00000240: 542b 29be 4c25 b4be 243f 86bf 9650 0bbf
00000250: 8f41 373f a056 c63d 7e49 5fbd f54b 80bc
00000260: d392 b1bc 4a5e 7e3e ae60 7bbe 9598 1dbf
00000270: 1e5c 86be b4ce b9bf 2c44 b33b 8f96 53bf
00000280: 37c7 653e 7a29 a4be 7b16 9a3f 7cf0 a63d
00000290: ff1b 92bd 11e0 273c 68ed 273f 2533 7b3e
000002a0: 22dd ef3f 7091 393e 0155 b8be 3678 b03d
000002b0: e98d 8e3d 9f39 04bd c83b 8cbf a35e aebe
000002c0: 2e8d 733e 0726 2ebe 819f 69bc e1b2 0bbf
000002d0: 73ab 383f 9476 4bbd 6dad d9be 771f 0b3c
000002e0: 5489 bebe a16e 583d 76f9 b03e baa8 553d
000002f0: 6c64 653e a35a 1f3f 7ad2 aa3f 421c 41be
00000300: 6d25 1dbf d104 983e daa9 8dbd 6bd7 263b
00000310: 81ef 83ba 3d17 adbe 9bf3 f03d 31fb 4cbf
00000320: bff0 cebb 13e4 2d3c dd75 213c 58eb 273f
00000330: 43ee 54be a82e 2bbc 1f00 dbbe 4cbe 5cbe
00000340: 8922 1e3f f059 8cbc 1d97 273f a062 5a3e
00000350: a073 1140 01f0 25bb 62be 16bc a8ce 90bf
00000360: bcd3 2f3e b73c cabe 14a4 8dbf b662 e5bc
00000370: b077 dd3e 108a 0d3e d854 e83d 0251 2abf
00000380: 3744 cf3e 9d21 643f 5082 343d 0908 00bf
00000390: 8687 123f 367b 3bbd 6242 21be 1670 8f3f
000003a0: 83ca 5fbf c793 243e d8ae 48bb f715 4f3e
000003b0: 6b7b d83d 3d1d 4dbe 6a9d 10bf 6151 adbe
000003c0: fe1b 8cbc 9aea 433e 81e2 b9be d679 7dbd
000003d0: df82 503f 1bbb 15bf 6f97 1fbf 6961 9ebf
000003e0: da58 f1ba 80ed 833e 4b88 c83d d0e2 483e
000003f0: f0d0 cd3d 0f39 d03e 8f1e ba3e 15cb 893c
0.44250554 -0.33295038 0.20639165 0.3784727 0.030760162 -1.0380362 0.13000359 -0.045255367
0.2821641 -0.030074066 -0.04596416 0.5729975 -0.9368055 0.17534351 0.23849483 0.80857587
0.053697214 -0.37116906 0.20666006 -0.36793393 0.7019406 0.18095839 0.07032158 -0.0030142136
-0.023927387 0.118871406 0.77137905 -1.2771279 0.1785592 -0.73299015 -0.013386599 -0.8526486
0.19041088 -0.3405838 0.89456123 0.18450674 -0.05170058 -0.040576268 0.3495762 0.41065168
1.6330355 0.16049737 -0.12302292 0.044051163 0.013893812 -0.02742456 -0.791569 -0.3184268
0.26996985 -0.2160706 -0.062146828 -0.7205304 1.011978 -0.22834015 1.1559161 -7.523961e-05
-0.27508944 -0.034042284 0.6720776 -0.41108316 0.25134763 0.3194433 1.069096 0.121030994
-0.9696193 0.632181 0.33073026 0.009302537 -0.023722615 -0.48892564 0.09546686 -0.53588706
0.022999065 -0.061097234 0.07962761 0.4403509 -0.34265104 0.016981471 -0.19853118 -0.5629635
0.36106017 -0.07857164 0.98882043 -0.19281514 0.9988545 -0.011818899 0.0039558937 -0.8738
0.23297344 -0.38345537 -0.63418996 -0.001432374 0.6686774 0.179931 -0.17491393 -0.77330273
0.35508662 0.30144483 0.015746307 -0.69480723 0.10663861 0.049988624 0.5078285 1.3848591
1.2228462 0.19436623 -0.004564688 0.17350325 1.6144025 0.088227555 -0.3370774 -0.26272964
-0.0011520778 1.5298308 -0.11967756 0.15182975 -0.8034015 -0.43132022 1.2243904 -1.6387274
0.10269873 0.12586991 -0.25288296 0.5073233 0.8425789 0.24918133 0.3611121 -0.015000726
0.46857822 1.3924236 0.19683342 0.46544623 -0.023827929 -0.04187806 0.34508482 -0.0458986
0.3552643 -0.017644044 0.05008889 0.8971765 2.188282 0.17848743 0.18517852 1.7450564
-0.16520435 -0.35184705 -1.0488019 -0.5441984 0.7158441 0.09684491 -0.054513447 -0.01566122
-0.021676457 0.24840656 -0.24548599 -0.61560947 -0.26242155 -1.4516206 0.005470773 -0.8265161
0.22439276 -0.32062894 1.203811 0.081513375 -0.07134246 0.010246293 0.6559663 0.24531229
1.8739359 0.18121886 -0.36002353 0.086166784 0.06960661 -0.032281514 -1.0955744 -0.34056577
0.23784325 -0.17006694 -0.01425922 -0.5456982 0.7213661 -0.04967363 -0.42515126 0.0084913885
-0.37214148 0.05283988 0.34565324 0.052162863 0.22401589 0.62247676 1.3345482 -0.18858436
-0.6138523 0.29691175 -0.06917162 0.002545799 -0.0010065885 -0.33806792 0.11765214 -0.8007079
-0.0063153203 0.010613459 0.009854761 0.6559348 -0.20794015 -0.010448135 -0.4277353 -0.21556967
0.61771446 -0.01713273 0.65464956 0.21326685 2.2726822 -0.0025320055 -0.009200664 -1.1313066
0.17170614 -0.39499447 -1.1065698 -0.02800117 0.43255377 0.13822198 0.11344308 -0.6652986
0.4048173 0.8911379 0.04406959 -0.5001226 0.5723804 -0.0457718 -0.1574798 1.1206081
-0.87418383 0.16071998 -0.0030621793 0.20223223 0.10570415 -0.20030685 -0.56490195 -0.3385115
-0.017103191 0.19132462 -0.3630562 -0.06188377 0.81449693 -0.58488625 -0.62340444 -1.2373477
-0.0018413321 0.25767136 0.09791621 0.19617772 0.10049617 0.40668532 0.3635144 0.01682047

b3 f4 [2]
00000000: 7aaa 613f 6d41 753f
0.8815075 0.95802957
