blob_compete/blob2_model.pth (torch, 74693 bytes, 6 tensors)

fc1.weight f4 [128, 8]
-0.25739214 0.38815755 0.28243378 -0.7104195 0.017512776 -0.28008753 0.04954373 -0.012278859
-0.5193061 -0.012623486 0.017642532 -1.3343343 0.44567993 0.11707397 2.5964274 0.19542514
-0.82396084 0.48570868 -0.16516349 0.28091088 0.18665402 0.03370343 0.62781715 -0.58659506
0.22947663 -1.395641 -0.22876844 -0.39764968 0.34511632 0.29915527 0.17554364 -0.0883609
0.03875076 -0.10110619 0.19422472 0.4500847 -0.2850634 0.07403238 -3.9506588 0.03798199
0.028646283 -0.040694103 0.00089513545 0.08030798 -0.14140174 0.017948845 -4.0864496 1.2027488
-0.32520014 -0.1411669 -0.13393149 0.30432096 -0.4429811 -0.21544527 -0.09043068 0.8054698
-0.5061628 -0.27439496 -0.31315655 -0.04291625 0.11941999 -0.07136827 -0.4596069 0.0020746058
0.3685173 -0.14817369 -0.12611108 -0.84945667 0.30360344 0.030551862 0.9014719 -0.82535905
0.01169037 -0.37607527 0.012293263 -0.59439135 0.049534492 -0.06605281 0.055134717 1.2172357
0.41408265 0.17868893 0.0026127356 -1.3558674 -0.13746102 0.0546593 0.48794597 -0.34069768
0.4580144 -0.91707325 -0.19087195 -0.29664367 -0.7943908 0.30256328 0.7487767 0.33355334
-0.4257252 -0.46751228 0.39009297 -0.04205282 0.56349766 0.11557905 -1.1207619 -0.17933716
0.434067 -0.093896635 0.05523406 -0.20456117 -0.19196211 -0.19841547 -2.4255507 -0.47277752
-0.38636878 0.27398503 -0.34983945 0.08688379 -1.0599664 0.28838298 -1.9302323 0.032999754
-0.18758653 -0.74490154 0.33690476 0.67530227 -0.08210045 -0.03636087 1.4314454 0.2803017
-0.61894345 0.18044372 -0.034427527 -0.85041165 -0.23118335 0.2524297 -1.6117113 0.7481363
0.43324384 -0.29380786 0.080700874 -0.77272266 -1.1038604 -0.05245734 -0.3701658 0.0022435377
-0.30512732 0.20054418 0.05466988 0.090490356 0.45715395 0.11772277 2.115834 0.28187588
-0.017790757 -1.7506727 -0.3854153 0.121879034 -0.8558624 0.018843424 1.6026309 -0.3490685
-0.2491179 -0.09286085 -0.013874849 -2.0504851 0.5658641 0.00079684885 2.6714664 -0.31546494
-0.5044499 0.21397133 0.23567833 0.12901099 -0.29635018 -0.043503772 -3.2799408 -0.80640244
-0.49875343 -0.14237468 -0.094159395 -0.2825908 0.02835987 0.037974022 -2.0984354 0.9531491
0.02716457 0.63477576 0.35050038 -0.15377398 -0.6185601 0.14475949 0.22174506 -0.04748272
0.45739657 -0.29435584 0.062877886 0.35611734 -0.92225856 0.16248079 -0.21119814 0.24276331
0.119927734 0.1815565 -0.0007568266 0.3253391 -0.80494434 0.0025488595 -1.0249956 -0.09229323
-0.38192227 -0.49162042 0.3563684 -0.03444672 -0.37051538 -0.23748554 2.7747436 0.6274149
-0.6265968 0.30358025 0.089157134 -0.37634468 0.023880681 0.5302582 1.2102513 -0.5260608
0.3527169 -0.24889834 -0.011269398 -0.19573309 -0.40912074 -0.11882859 3.0050952 0.291445
-0.35216835 -0.12820074 0.020905107 -0.078834884 0.09291368 -0.41992047 -1.2817163 0.42541635
-0.06903091 -0.14474806 -0.031894 0.05068223 0.23640719 -0.0035622935 -2.3428187 -1.1408141
-0.36992577 -0.5335486 -0.3649213 -0.011445435 -0.75637543 -0.32857674 -1.8193828 -0.21326047
00000000: e7c8 83be 96bc c63e 299b 903e 0dde 35bf
00000010: f476 8f3c a267 8fbe 5eee 4a3d 442d 49bc
00000020: 3ff1 04bf bdd2 4ebc 1287 903c 77cb aabf
00000030: 2930 e43e 7ac4 ef3d de2b 2640 871d 483e
00000040: 19ef 52bf cfae f83e 9e20 29be 8dd3 8f3e
00000050: 3b22 3f3e 9c0c 0a3d a0b8 203f 182b 16bf
00000060: ecfb 6a3e 5da4 b2bf 4642 6abe bd98 cbbe
00000070: 16b3 b03e e12a 993e b6c1 333e 8ff6 b4bd
00000080: 1eb9 1e3d c310 cfbd d8e2 463e 8071 e63e
00000090: d4f3 91be 4a9e 973d 98d7 7cc0 0193 1b3d
000000a0: 9cab ea3c dcae 26bd 86a7 6a3a 8378 a43d
000000b0: 9ecb 10be 7509 933c 32c4 82c0 acf3 993f
000000c0: a280 a6be 0e8e 10be 5625 09be f5cf 9b3e
000000d0: 6bce e2be af9d 5cbe b833 b9bd 4533 4e3f
000000e0: e393 01bf 7f7d 8cbe 0e56 a0be f3c8 2fbd
000000f0: 7892 f43d 8729 92bd 9851 ebbe 1cf6 073b
00000100: 4dae bc3e d8ba 17be 4323 01be fe75 59bf
00000110: e971 9b3e e647 fa3c ddc6 663f bb4a 53bf
00000120: f788 3f3c f08c c0be af69 493c 082a 18bf
00000130: aee4 4a3d b246 87bd f1d4 613d 61ce 9b3f
00000140: a402 d43e 3bfa 363e 6e3a 2b3b 108d adbf
00000150: 95c2 0cbe 6ee2 5f3d 0ed4 f93e ed6f aebe
00000160: dd80 ea3e 50c5 6abf f073 43be aee1 97be
00000170: 325d 4bbf 93e9 9a3e d4af 3f3f 81c7 aa3e
00000180: a7f8 d9be c55d efbe 44ba c73e 943f 2cbd
00000190: 6241 103f b5b4 ec3d 2075 8fbf 29a4 37be
000001a0: 083e de3e e14c c0bd 1c3d 623d 7c78 51be
000001b0: b791 44be 6d2d 4bbe 393c 1bc0 e50f f2be
000001c0: 21d2 c5be c447 8c3e 281e b3be 21f0 b13d
000001d0: fbac 87bf efa6 933e da11 f7bf c02a 073d
000001e0: af16 40be deb1 3ebf c87e ac3e 9ce0 2c3f
000001f0: 4824 a8bd 23ef 14bd 9a39 b73f b483 8f3e
00000200: 1473 1ebf 3dc6 383e e103 0dbd 94b4 59bf
00000210: 54bb 6cbe 773e 813e 8e4c cebf dc85 3f3f
00000220: 23d2 dd3e fc6d 96be 8046 a53d 27d1 45bf
00000230: 4c4b 8dbf 82dd 56bd 5f86 bdbe 5108 133b
00000240: a639 9cbe 745b 4d3e 86ed 5f3d 0253 b93d
00000250: 1510 ea3e a318 f13d d369 0740 0952 903e
00000260: ecbd 91bc 0b16 e0bf 2755 c5be b79b f93d
00000270: cc19 5bbf 865d 9a3c 0223 cd3f 1bb9 b2be
00000280: c318 7fbe d42d bebd 5653 63bc 263b 03c0
00000290: 78dc 103f 9fe3 503a 4ef9 2a40 9f84 a1be
000002a0: a123 01bf 4d1b 5b3e a955 713e 751b 043e
000002b0: 36bb 97be 0331 32bd 8dea 51c0 6470 4ebf
000002c0: 9c5c ffbe abca 11be a4d6 c0bd beaf 90be
000002d0: f552 e83c a68a 1b3d c44c 06c0 9401 743f
000002e0: 3b88 de3c aa80 223f c974 b33e ed76 1dbe
000002f0: f459 1ebf d53b 143e 2311 633e 3e7d 42bd
00000300: e22f ea3e cfb5 96be 1fc6 803d 0355 b63e
00000310: 2319 6cbf 5d61 263e 5344 58be f296 783e
00000320: ac9c f53d f2e9 393e c665 46ba d992 a63e
00000330: d510 4ebf c40a 273b 0e33 83bf 3c04 bdbd
00000340: 518b c3be acb5 fbbe eb75 b63e 0118 0dbd
00000350: 31b4 bdbe 692f 73be 6695 3140 439e 203f
00000360: a668 20bf df6e 9b3e 0498 b63d 40b0 c0be
00000370: 6ba1 c33c 00bf 073f 84e9 9a3f ecab 06bf
00000380: 4f97 b43e 35df 7ebe 48a3 38bc 416e 48be
00000390: 4678 d1be 675c f3bd 7b53 4040 4738 953e
000003a0: 694f b4be 0e47 03be 3041 ab3c 2f74 a1bd
000003b0: 8749 be3d d1ff d6be 480f a4bf 2cd0 d93e
000003c0: 1460 8dbd d638 14be 48a3 02bd 2c98 4f3d
000003d0: ba14 723e 5e75 69bb bef0 15c0 3206 92bf
000003e0: e966 bdbe a496 08bf f7d6 babe a285 3bbc
000003f0: d2a1 41bf 363b a8be 89e1 e8bf f460 5abe

fc1.bias f4 [128]
0.08638376 0.14168738 -0.07581042 -0.09949765 -0.12263646 -0.42493564 0.098059595 0.72108436
-0.66731095 -0.40501794 0.078381516 -0.41106772 -0.25109845 -0.21284065 -0.1851063 -0.4281219
0.04636116 0.36254004 -0.32021147 -0.29249755 0.07312167 -0.7211494 -0.46210372 -0.36839873
-0.1942771 0.32876554 -0.3871768 -0.3579395 0.15551461 0.45264795 -0.47066638 0.36911666
0.08799595 -0.24247703 -0.20332937 0.40713564 0.35268295 0.23631468 -0.6036467 -0.23249659
0.467635 0.46085322 0.27231336 0.5077908 0.71527636 -0.72323114 -0.25681478 0.45314705
0.4704909 -0.076789625 0.3221908 -0.22133693 0.18833269 0.2136636 -0.18505946 -0.7266229
-0.7452382 -0.17510328 0.38074067 -0.20491388 0.30915523 -0.26142326 -0.87242866 0.12125747
-0.2395431 0.53236026 0.5530915 -0.51167345 -0.3735895 0.34525168 -0.6999607 0.4958459
-0.16830623 0.024109961 -0.19762608 0.3898444 -0.49511406 -0.38544336 0.44055355 -0.3122299
-0.2516064 -0.17979635 -0.3822494 0.2902369 -0.24183024 0.12582807 -0.20989078 -0.17116067
0.12687631 -0.49069068 -0.32794747 -0.10960691 -0.5991329 -0.5377396 -0.19539016 0.5242153
-0.72481585 -0.35936457 -0.17956668 -0.49924138 -0.28161496 -0.41038275 0.73737925 -0.510965
0.5093661 -0.3673436 -0.0065082903 0.3457234 0.10503505 0.19253352 -0.15386608 0.059014477
0.18638527 0.37667793 0.5313512 0.31368628 -0.32436025 0.39914823 0.5800386 -0.4740743
0.12720568 -0.36976364 0.29274878 0.6137677 0.46939817 -0.2563803 -0.3485967 -0.3490375
00000000: f8e9 b03d 7f16 113e 7e42 9bbd 6dc5 cbbd
00000010: d328 fbbd 2a91 d9be 78d3 c83d fc98 383f
00000020: e4d4 2abf 835e cfbe 7d86 a03d 7877 d2be
00000030: fa8f 80be e6f2 59be 828c 3dbe cb32 dbbe
00000040: 33e5 3d3d d99e b93e c2f2 a3be 3dc2 95be
00000050: d0c0 953d 3f9d 38bf dc98 ecbe c29e bcbe
00000060: 93f0 46be f553 a83e 0a3c c6be d943 b7be
00000070: 393f 1f3e 79c1 e73e 2ffb f0be dcfc bc3e
00000080: 3837 b43d e64b 78be 9335 50be 1574 d03e
00000090: dc92 b43e 7afc 713e 9788 1abf 9613 6ebe
000000a0: db6d ef3e f4f4 eb3e a86c 8b3e 94fe 013f
000000b0: 5a1c 373f ad25 39bf 3a7d 83be e402 e83e
000000c0: 2fe4 f03e e143 9dbd 31f6 a43e 26a6 62be
000000d0: 49da 403e a1ca 5a3e 3a80 3dbe f503 3abf
000000e0: eec7 3ebf 464e 33be 71f0 c23e f2d4 51be
000000f0: 9849 9e3e 45d9 85be 7c57 5fbf d655 f83d
00000100: c94a 75be c348 083f 6897 0d3f 08fd 02bf
00000110: 1f47 bfbe d4c4 b03e a030 33bf 84df fd3e
00000120: 7858 2cbe 4182 c53c 7e5e 4abe af99 c73e
00000130: 977f fdbe d558 c5be 3c90 e13e 99dc 9fbe
00000140: 8ed2 80be 891c 38be 31b6 c3be ee99 943e
00000150: 59a2 77be 13d9 003e 9ced 56be be44 2fbe
00000160: ddeb 013e cf3b fbbe bbe8 a7be 9679 e0bd
00000170: c660 19bf 4da9 09bf 5c14 48be f932 063f
00000180: 888d 39bf a2fe b7be 54e0 37be 919c ffbe
00000190: d62f 90be b01d d2be e3c4 3c3f 9ace 02bf
000001a0: d165 023f 7614 bcbe 7f43 d5bb a802 b13e
000001b0: 9e1c d73d 8227 453e 128f 1dbe 2ab9 713d
000001c0: c8db 3e3e eedb c03e a206 083f 7d9b a03e
000001d0: 8c12 a6be 285d cc3e 697d 143f deb9 f2be
000001e0: 3542 023e a951 bdbe 2be3 953e e11f 1d3f
000001f0: f554 f03e 4744 83be 447b b2be 0bb5 b2be

fc2.weight f4 [128, 128]
-0.009414157 -0.19921887 -0.22892913 -0.054825533 0.1483028 -1.4092286 -1.4631319 0.19706458
-0.21611331 -1.2332646 0.061902788 -1.3779216 -0.1724083 0.20919803 -1.1030011 -0.00017455597
-0.9258719 -0.07993398 0.06129617 -0.79179937 -0.9881731 0.39187908 -0.008615637 0.10513944
0.026225073 -0.073976025 -0.27706063 -0.13664542 -0.36498892 0.29995376 0.03574077 0.6373874
-0.120098405 -0.5209476 0.051657528 -0.0028692076 0.15417032 -0.28006366 0.2097897 -0.33825976
0.2876168 -0.14231361 -0.015666444 0.767304 0.4034655 -1.7153952 0.29659778 0.074782446
0.22220814 -0.55674744 0.17921814 -0.16902997 0.42401624 -0.13488808 0.24472229 0.07365992
0.096641585 -1.6561532 0.0037241331 0.040074807 0.25153106 -0.2428864 0.08622627 0.24891897
-0.9772146 -0.48940128 -0.39437264 -0.1989578 -0.364467 0.5850499 -0.012107252 0.7264885
0.5525012 0.31387168 -0.17680854 0.5846726 -0.3254916 -0.48069215 -0.18085545 -0.26375133
-0.30788887 -0.22379859 -0.0012680254 -0.08848747 -0.3411604 -0.37360227 -0.89158505 -0.07773448
-0.90831435 -0.7550273 0.11347232 0.55259037 -0.54218477 0.132575 0.58034647 0.11285488
-0.40162173 0.43420517 -0.16709362 -0.27917555 -0.550873 -1.6475531 0.8463885 0.3245701
0.115236565 -1.0728157 0.004706423 0.069640554 0.29358947 -0.055372868 0.13984081 -1.4508674
-0.076221414 0.4146136 0.15250029 -0.5250684 0.08431191 0.17578982 0.12534398 -1.3602306
0.43141398 0.66516054 1.0480896 0.199878 0.3717116 -0.11991315 -1.0133939 0.1891357
-0.1550643 0.6753092 0.00020974854 -0.34942946 0.5104023 0.018115826 -0.36564386 0.15772235
0.12375569 -0.048701536 -0.03769386 -0.09720722 -0.11418837 -0.08310393 0.18995224 -0.63429475
0.0974449 -0.5570818 -0.013050893 0.14370227 0.3444616 0.8152223 0.13224179 0.03759679
-0.28799525 -0.25697345 0.2513769 -0.7922695 -0.18645097 -0.28784618 0.021441154 0.24495919
-0.2958551 -0.72217995 0.14227957 0.1509155 -0.5737344 -0.5311251 -0.11005844 0.86165315
-0.18664388 0.040485345 0.14607352 1.0609127 0.46995255 0.030976824 0.22278401 -0.24828799
0.5324657 -0.17943752 0.22692466 -1.1938643 0.09183449 0.72097784 -0.21369855 -0.5155407
-0.6108352 -0.6011928 -0.3056678 0.2343456 -0.080112904 -0.36626226 -0.12876439 -0.16498591
0.2139394 -0.5023697 0.8254542 -0.34757826 0.1689473 0.0135219535 -0.008263296 0.7110207
0.49555725 0.26144204 -0.3304459 0.06372795 -0.106944576 0.025604924 -0.4569829 0.6488926
-0.29206055 -0.4042853 -0.1016219 0.06740018 0.010305315 -0.65165323 -1.0821655 0.87867266
-0.23717271 -0.4444085 0.41910416 0.42695832 0.83124137 0.6839 0.0805928 -0.47998357
0.518447 0.36680365 -0.9525326 0.42401245 0.07975849 0.47331205 -0.74779433 0.17047332
0.07797372 -0.027322654 -0.06390857 0.6341461 -0.21341312 0.2731603 0.28315002 -0.6902175
0.26652974 -0.03805925 1.1574548 -0.2638277 -0.77946424 -0.6770199 -0.08857228 -0.36767668
0.58695287 -0.12952442 1.4416016 -0.17297955 -0.41424042 0.113097206 0.1041714 -0.47228283
00000000: d63d 1abc 0800 4cbe 666c 6abe bd90 60bd
00000010: b0dc 173e 9a61 b4bf e847 bbbf 4ccb 493e
00000020: cf4c 5dbe 9ddb 9dbf c78d 7d3d bc5f b0bf
00000030: cd8b 30be 0238 563e 242f 8dbf 0309 37b9
00000040: f105 6dbf 6db4 a3bd b111 7b3d 5db3 4abf
00000050: eaf8 7cbf 60a4 c83e 9a28 0dbc 5953 d73d
00000060: f7d5 d63c be80 97bd e4da 8dbe c7ec 0bbe
00000070: d4df babe 8a93 993e ea64 123d d22b 233f
00000080: 27f6 f5bd d25c 05bf d896 533d 5109 3cbb
00000090: d3de 1d3e 8164 8fbe 1cd3 563e 6230 adbe
000000a0: 8242 933e a9ba 11be ea56 80bc 096e 443f
000000b0: 0893 ce3e 1292 dbbf aadb 973e 8a27 993d
000000c0: 888a 633e 0087 0ebf f684 373e 3116 2dbe
000000d0: a818 d93e 1a20 0abe 7b98 7a3e 03db 963d
000000e0: 06ec c53d d4fc d3bf 9610 743b 7b25 243d
000000f0: aec8 803e 36b7 78be 6697 b03d 9de4 7e3e
00000100: bc2a 7abf ce92 fabe 36eb c9be 98bb 4bbe
00000110: 6b9b babe d5c5 153f 7f5d 46bc 26fb 393f
00000120: b870 0d3f cab3 a03e 4c0d 35be 1aad 153f
00000130: d6a6 a6be 481d f6be 2c32 39be 6a0a 87be
00000140: 9ca3 9dbe 752b 65be df33 a6ba eb38 b5bd
00000150: 93ac aebe cc48 bfbe eb3e 64bf 4133 9fbd
00000160: 4a87 68bf 7849 41bf 2d64 e83d 9076 0d3f
00000170: 9fcc 0abf bec1 073e 9691 143f 7620 e73d
00000180: 5da1 cdbe 2450 de3e 971a 2bbe 19f0 8ebe
00000190: 0306 0dbf 05e3 d2bf ebac 583f 0d2e a63e
000001a0: 2601 ec3d 0652 89bf 5638 9a3b b59f 8e3d
000001b0: 5c51 963e a9ce 62bd 6e32 0f3e 06b6 b9bf
000001c0: f919 9cbd 3c48 d43e 0929 1c3e e26a 06bf
000001d0: b9ab ac3d 3f02 343e 2c5a 003e 091c aebf
000001e0: 4be2 dc3e f647 2a3f cd27 863f d2ac 4c3e
000001f0: fc50 be3e 0795 f5bd e4b6 81bf caac 413e
00000200: 2dc9 1ebe 10e1 2c3f f2ef 5b39 6be8 b2be
00000210: baa9 023f a467 943c ac35 bbbe f881 213e
00000220: a073 fd3d 437b 47bd e064 1abd 9414 c7bd
00000230: 98db e9bd 6532 aabd d782 423e 2461 22bf
00000240: 3191 c73d ea9c 0ebf 6ad3 55bc b026 133e
00000250: 455d b03e 69b2 503f 646a 073e 17ff 193d
00000260: 1d74 93be 0692 83be 79b4 803e 2dd2 4abf
00000270: 01ed 3ebe 9360 93be 5ca5 af3c 95d6 7a3e
00000280: 527a 97be c9e0 38bf bcb1 113e 9889 1a3e
00000290: 42e0 12bf d1f7 07bf 5266 e1bd 4d95 5c3f
000002a0: 931f 3fbe f6d3 253d 4c94 153e fdcb 873f
000002b0: 9f9d f03e 1cc3 fd3c 7e21 643e 353f 7ebe
000002c0: ac4f 083f 78be 37be f05e 683e 8cd0 98bf
000002d0: b913 bc3d 0192 383f cbd3 5abe 7afa 03bf
000002e0: b25f 1cbf c5e7 19bf 7d80 9cbe 4bf8 6f3e
000002f0: 3c12 a4bd ba86 bbbe d0da 03be 11f2 28be
00000300: ee12 5b3e 4d9b 00bf f750 533f c7f5 b1be
00000310: 8500 2d3e 2f8b 5d3c c762 07bc 7405 363f
00000320: aeb9 fd3e bbdb 853e 3430 a9be cd83 823d
00000330: c205 dbbd 6bc1 d13c aaf9 e9be d31d 263f
00000340: f688 95be 7cfe cebe 251f d0bd 1b09 8a3d
00000350: a0d7 283c bfd2 26bf 6684 8abf b1f0 603f
00000360: 67dd 72be 8389 e3be d294 d63e 489a da3e
00000370: 3ccc 543f 1214 2f3f d70d a53d 68c0 f5be
00000380: f1b8 043f b0cd bb3e 2dd9 73bf 2918 d93e
00000390: 6b58 a33d f555 f23e 736f 3fbf 8f90 2e3e
000003a0: b0b0 9f3d c2d3 dfbc 7fe2 82bd 6657 223f
000003b0: f888 5abe abdb 8b3e 0af9 903e 18b2 30bf
000003c0: 9676 883e 04e4 1bbd 7b27 943f 6d14 87be
000003d0: f88a 47bf 2d51 2dbf 6265 b5bd 1e40 bcbe
000003e0: 8b42 163f 0da2 04be 6786 b83f 8d21 31be
000003f0: 5217 d4be 829f e73d d157 d53d 0ecf f1be

fc2.bias f4 [128]
0.18003322 -0.21103953 0.63868254 -0.07814786 -0.02596704 0.19351706 0.3335372 0.110592924
0.280898 0.1801501 -0.10209987 -0.2927798 0.13544393 -0.27990544 -0.1390234 -0.026882218
-0.07644148 0.00634403 -0.14745854 -0.13826717 -0.06132637 -0.04831289 0.43169236 -0.17657916
0.5138213 -0.2732633 -0.097839944 0.24889973 0.27163467 -0.39231583 0.15560539 0.28583375
0.0075853034 -0.24964653 0.002721599 -0.030278308 -0.04438021 0.3462084 0.44768754 0.33884984
0.27558824 0.02251726 0.24720658 -0.08365845 0.6835091 0.037957184 -0.098615244 0.5072639
-0.24643081 0.59801537 0.0628681 0.10186329 0.045337345 0.19454238 0.67348254 -0.0875562
-0.16861176 -0.03147946 0.02051078 -0.23618776 0.03670286 0.7340214 -0.0463148 -0.25929618
-0.18128414 -0.008162661 0.09258346 -0.041977033 0.02447447 0.53678346 -0.13918549 -0.017980566
-0.1211404 0.20252007 0.6882122 -0.055060208 0.5352987 -0.0329244 0.05499832 0.59413725
-0.31326982 -0.046807446 -0.011380557 0.37033612 0.21273947 -0.04330677 0.35711998 0.9456646
-0.08449027 0.044852544 -0.016341148 0.10341112 0.313118 0.020274159 0.4293789 -0.18486142
0.6265955 -0.07548012 -0.10231161 -0.052683037 -0.06499628 0.33003324 0.66126883 0.37439597
0.011587012 -0.12959847 0.0066254116 0.003159826 -0.30475724 -0.09441998 0.34207994 -0.1878404
-0.016350258 0.34493485 0.39086005 0.24313833 0.33165413 0.17143981 -0.040566705 -0.15140375
-0.15016547 1.0657468 0.27079773 -0.33867264 -0.032163594 0.28734547 -0.0719617 0.018050082
00000000: a15a 383e bf1a 58be b380 233f fc0b a0bd
00000010: d4b8 d4bc 5629 463e 63c5 aa3e 8b7e e23d
00000020: ddd1 8f3e 4579 383e bd19 d1bd 3ce7 95be
00000030: d0b1 0a3e c44f 8fbe 265c 0ebe 1938 dcbc
00000040: 5a8d 9cbd 95e1 cf3b 5fff 16be e995 0dbe
00000050: 5c31 7bbd bde3 45bd c806 dd3e 2bd1 34be
00000060: cb89 033f 2be9 8bbe 4f60 c8bd 92df 7e3e
00000070: b313 8b3e 9fdd c8be 0557 1f3e cd58 923e
00000080: 238e f83b 57a3 7fbe db5c 323b 370a f8bc
00000090: 06c8 35bd 3a42 b13e 4d37 e53e ba7d ad3e
000000a0: e719 8d3e 1e76 b83c b923 7d3e 1f55 abbd
000000b0: 74fa 2e3f fe78 1b3d caf6 c9bd 0cdc 013f
000000c0: 5c58 7cbe 8917 193f fec0 803d b39d d03d
000000d0: a7b3 393d 1e36 473e 5a69 2c3f aa50 b3bd
000000e0: 90a8 2cbe 9bf0 00bd 3906 a83c 34db 71be
000000f0: bd55 163d d4e8 3b3f 96b4 3dbd 78c2 84be
00000100: 8da2 39be afbc 05bc 669c bd3d 1cf0 2bbd
00000110: af7e c83c a46a 093f a486 0ebe fb4b 93bc
00000120: 7518 f8bd 6c61 4f3e ad2e 303f d086 61bd
00000130: 5609 093f bcdb 06bd eb45 613d 6119 183f
00000140: e764 a0be 2ab9 3fbd 8475 3abc b29c bd3e
00000150: 60d8 593e 7162 31bd 6ed8 b63e 1317 723f
00000160: 3c09 adbd 4db7 373d dfdd 85bc 36c9 d33d
00000170: 0151 a03e fe15 a63c 8dd7 db3e 504c 3dbe
00000180: 9068 203f 5295 9abd c088 d1bd 2bca 57bd
00000190: c51c 85bd 1efa a83e ea48 293f d4b0 bf3e
000001a0: 73d7 3d3c 76b5 04be fb19 d93b 1515 4f3b
000001b0: 2409 9cbe 435f c1bd 1a25 af3e 3c59 40be
000001c0: faf0 85bc 4d9b b03e cf1e c83e 41f9 783e
000001d0: 92ce a93e eb8d 2f3e 4629 26bd 9609 1bbe
000001e0: fac4 19be 646a 883f 00a6 8a3e 8066 adbe
000001f0: f9bd 03bd f21e 933e a860 93bd c4dd 933c

fc3.weight f4 [2, 128]
0.66422397 -0.4442768 -0.024680493 0.040989112 0.10672603 1.3073144 0.28196168 0.63586843
0.18309097 0.35838708 0.128636 -0.22854295 1.5144913 -0.094973914 -0.9937932 2.1131785
-0.034639794 0.47864076 0.030824492 -0.018869212 -0.013790958 -0.058148064 -0.056680933 -0.30777994
-0.04800345 0.33134058 -0.9943176 1.0252471 0.30737233 -0.17025812 0.05333825 0.45834494
0.06995256 -0.47677428 -0.0029804967 -0.53892773 0.009824657 0.8117874 0.09599134 0.8539956
0.19527005 -0.51008195 0.20759887 -0.6397637 0.116967954 -1.8031139 -0.023445785 0.36260423
-0.8878984 0.62769604 1.003772 0.28287408 -0.25787675 -0.9661523 0.053928133 -0.0035555384
-0.3445074 0.74598724 -0.40133387 0.4125616 0.0070726285 0.37014848 0.087513305 -0.06437248
2.5092885 0.19041722 1.2325156 0.29656318 -0.052450396 0.31747782 -0.53979886 -0.27351007
-0.27498809 0.043732584 0.75902426 0.00292775 0.33428517 0.2579293 -0.07401523 0.34979755
-0.36423066 0.3454624 -1.0277812 0.2839914 1.1466179 -0.01891379 0.42522314 0.55940896
-1.0821633 0.61852694 0.041941915 1.790791 1.4357091 0.6190994 0.5460548 0.9311698
0.25398603 0.005960541 0.001295417 0.013950179 0.042271025 -0.20637096 0.30365986 0.122562304
-0.84417456 -0.54658544 -0.45727307 -0.02157352 -0.2161262 0.047156725 -0.018680774 -0.53392124
-0.028822402 0.95941085 0.15854461 0.39863375 0.51732755 0.6124767 0.25528142 1.7815304
-0.036026325 0.2736249 0.42810988 -0.74306256 0.2357946 1.0314827 0.86285657 0.003128012
1.0876236 -0.5145723 0.5085954 -0.016673652 0.36170986 1.5756302 0.3189541 0.86142814
-0.1801322 -0.5344349 -0.300245 -0.31786695 1.181319 -0.15237576 -1.6672671 0.82097024
0.07331791 -1.789781 -0.009982473 -0.058954712 -0.035472527 0.01365343 0.57027316 -0.30117103
0.37472403 0.4387471 -0.76446277 0.83186865 0.41120178 -0.103036776 -0.38100898 0.25279123
-0.08367862 -0.44381544 0.052097257 0.15104045 0.03889597 0.6836087 0.103757866 0.36083022
0.4681941 -0.6684301 -0.33199844 -0.9825638 0.013502919 -1.463374 -0.021772709 0.39748695
-1.0753965 0.53643024 0.778757 0.20329902 0.35913116 -1.4549744 0.079522975 0.04770958
-0.46963584 1.3456671 -0.16765603 -0.26484552 0.041619588 0.6474412 -0.6665868 -0.24526268
0.2523827 -0.36086577 1.1638855 0.15287404 0.010854705 0.15702574 -0.7963074 -0.21622857
0.39985138 0.25698194 -0.055833604 -0.014744524 0.005968417 -0.24984334 1.8687944 0.34009555
-0.41857705 0.9074266 -0.6325246 -0.24042182 0.4988802 -0.07733713 0.41017193 0.5107302
-0.524815 0.42946082 0.117740475 1.5218484 1.3898987 0.5243063 0.74399185 1.1812487
0.05556429 0.0053009735 0.0793194 0.025877634 -0.0019049005 0.44271 0.3251691 0.30583382
-0.59698355 -0.45496103 -0.31091768 0.06926336 -0.14715593 -0.20179686 0.56384826 -0.37498632
-0.0036435688 0.72612077 0.19022426 -0.26344132 0.55257803 0.5776305 0.23428263 1.2570525
-0.0024232103 0.29701862 0.63583565 -0.501352 0.1905791 1.1950872 0.7066956 -0.0963147
00000000: 950a 2a3f 4078 e3be bf2e cabc 33e4 273d
00000010: 2d93 da3d 1456 a73f 485d 903e 46c8 223f
00000020: 337c 3b3e 837e b73e 28b9 033e 2a07 6abe
00000030: dada c13f af81 c2bd 3b69 7ebf 513e 0740
00000040: 75e2 0dbd 6710 f53e a583 fc3c 9b93 9abc
00000050: 78f3 61bc aa2c 6ebd 442a 68bd 5595 9dbe
00000060: 449f 44bd 79a5 a93e 998b 7ebf 4c3b 833f
00000070: e85f 9d3e 2558 2ebe 3579 5a3d 30ac ea3e
00000080: 4a43 8f3d c21b f4be 7054 43bb 2bf7 09bf
00000090: 99f7 203c 4dd1 4f3f 1c97 c43d 759f 5a3f
000000a0: dff4 473e bb94 02bf cc94 543e 8ec7 23bf
000000b0: e58c ef3d 70cc e6bf 6011 c0bc 43a7 b93e
000000c0: 4f4d 63bf b0b0 203f 9a7b 803f dfd4 903e
000000d0: 6c08 84be c255 77bf bfe3 5c3d 0904 69bb
000000e0: 4663 b0be 05f9 3e3f a27b cdbe 463b d33e
000000f0: 82c1 e73b 1a84 bd3e 2d3a b33d b8d5 83bd
00000100: 2f98 2040 bbfc 423e 12c3 9d3f 21d7 973e
00000110: 3ad6 56bd 748c a23e 4230 0abf 8309 8cbe
00000120: 3dcb 8cbe f020 333d 6a4f 423f 7fdf 3f3b
00000130: 6d27 ab3e 4f0f 843e 4c95 97bd aa18 b33e
00000140: 717c babe 73e0 b03e 568e 83bf 5267 913e
00000150: 60c4 923f 18f1 9abc d9b6 d93e 6d35 0f3f
00000160: 5484 8abf c857 1e3f 49cb 2b3d a438 e53f
00000170: 51c5 b73f 4c7d 1e3f 3fca 0b3f 2561 6e3f
00000180: 750a 823e a450 c33b fbca a93a 4b8f 643c
00000190: 6224 2d3d e952 53be 4e79 9b3e f201 fb3d
000001a0: d31b 58bf 06ed 0bbf b21f eabe f3ba b0bc
000001b0: 3050 5dbe 6927 413d 6c08 99bc 10af 08bf
000001c0: f51c ecbc f39b 753f 8559 223e b919 cc3e
000001d0: 946f 043f 46cb 1c3f 3fb4 823e 3009 e43f
000001e0: 5790 13bd 9018 8c3e 3831 db3e 5939 3ebf
000001f0: 2474 713e a007 843f 2be4 5c3f 55ff 4c3b
00000200: 4037 8b3f 03bb 03bf 4f33 023f 2f97 88bc
00000210: 0932 b93e 40ae c93f f44d a33e 8e86 5c3f
00000220: 9374 38be bad0 08bf b6b9 99be 75bf a2be
00000230: 7635 973f 6408 1cbe 0269 d5bf 1b2b 523f
00000240: b327 963d 8b17 e5bf 878d 23bc 7f7a 71bd
00000250: a44b 11bd a3b2 5f3c 6cfd 113f 1733 9abe
00000260: d4db bf3e 76a3 e03e d5b3 43bf 58f5 543f
00000270: 0a89 d23e f204 d3bd 9c13 c3be da6d 813e
00000280: b25f abbd c73b e3be ef63 553d 59aa 1a3e
00000290: 6151 1f3d fb00 2f3f 017f d43d bdbe b83e
000002a0: 23b7 ef3e 3c1e 2bbf b3fb a9be 4d89 7bbf
000002b0: 593b 5d3c d74f bbbf ae5c b2bc 6983 cb3e
000002c0: 98a6 89bf 7e53 093f 9e5c 473f 9e2d 503e
000002d0: 0ae0 b73e 9a3c babf f1dc a23d 1f6b 433d
000002e0: 1c74 f0be d23e ac3f 06ae 2bbe d599 87be
000002f0: 4d79 2a3d b5be 253f 6fa5 2abf 2426 7bbe
00000300: 4e38 813e 66c3 b8be 33fa 943f 038b 1c3e
00000310: efd7 313c 5bcb 203e cdda 4bbf 066b 5dbe
00000320: 52b9 cc3e 2393 833e c7b1 64bd 0493 71bc
00000330: b692 c33b efd6 7fbe a834 ef3f 0121 ae3e
00000340: bb4f d6be 1c4d 683f 22ed 21bf 2331 76be
00000350: 3a6d ff3e ee62 9ebd 0e02 d23e 37bf 023f
00000360: 475a 06bf 4ae2 db3e eb21 f13d eecb c23f
00000370: 33e8 b13f f038 063f 4076 3e3f 2833 973f
00000380: 6297 633d cab3 ad3b 3672 a23d 55fd d33c
00000390: dbad f9ba e3aa e23e 907c a63e 4096 9c3e
000003a0: ead3 18bf a7f0 e8be 9a30 9fbe f3d9 8d3d
000003b0: 0bb0 16be d6a3 4ebe 5c58 103f 35fe bfbe
000003c0: f1c8 6ebb 0de3 393f 26ca 423e c8e1 86be
000003d0: c175 0d3f 98df 133f c9e7 6f3e 19e7 a03f
000003e0: b9ce 1ebb d312 983e 20c6 223f 9b58 00bf
000003f0: 2b27 433e 9ef8 983f 01ea 343f a440 c5bd

fc3.bias f4 [2]
0.9881366 0.97419876
00000000: 85f6 7c3f 1765 793f
