blob_compete/blob1_model.pth (torch, 74693 bytes, 6 tensors)

fc1.weight f4 [128, 8]
000000 c6 8b 6f be fe 6a 17 bf 28 d2 c6 3e 39 1e ef 3e
       -0.23393163 -0.5914763 0.38832211 0.46702746
000010 52 24 a7 be 0a 40 88 bd 0f a8 a1 3f 82 86 68 3e
       -0.32644898 -0.066528395 1.2629412 0.2270756
000020 80 a1 ca be e1 6d 48 3e 10 c9 8a 3e 58 ab 41 3f
       -0.3957634 0.19573165 0.27106524 0.75652075
000030 29 93 4c 3e b6 b6 c2 3c 8b 27 b7 3f cf d2 56 bc
       0.19978012 0.023768764 1.4308943 -0.013111784
000040 b2 8a 72 be 5f b3 22 be e0 ca f2 3d 22 cb be 3e
       -0.2368572 -0.15888737 0.118551016 0.37264353
000050 b6 17 3a 3e 73 cc 2f 3d c5 14 2f c0 6e 56 93 be
       0.18173108 0.042919587 -2.7356427 -0.28776878
000060 9c 7b 08 bf 0b 38 35 3f e8 94 b3 3e c6 0c 8b be
       -0.5331361 0.7078864 0.35074544 -0.27158183
000070 6e e8 12 be 0a 68 1e be 3a 90 5c bf b2 c0 cd 3d
       -0.14346477 -0.15469375 -0.8615757 0.10046519
000080 3f 7f 6c 3e c1 ff 5a be 69 5b 8c 3c 22 a0 80 3d
       0.23095416 -0.21386625 0.017133432 0.06280543
000090 04 77 ff 3e 62 b3 e1 3e dc 1b d4 bf d3 0a 01 bf
       0.4989549 0.4408217 -1.6571002 -0.5040714
0000a0 73 3b cc 3e 69 94 18 bf 54 c5 bb 3e 58 10 13 3e
       0.39889106 -0.59601456 0.36673987 0.14361703
0000b0 b8 b4 2b be 70 37 83 3e b8 11 b2 3f de c4 be be
       -0.16768157 0.25628233 1.3911657 -0.37259573
0000c0 67 72 82 be 83 d1 1a 3e 83 8f 4f be a2 f1 f9 3e
       -0.25477907 0.15118985 -0.20269589 0.48817164
0000d0 1a 4a a9 be 32 0c b5 be 18 0e 70 be 67 64 9d be
       -0.33064348 -0.35360867 -0.23442876 -0.30740663
0000e0 74 89 e1 bd 5a 42 35 3f 80 b8 71 bd f6 9a 4a 3f
       -0.11012545 0.7080437 -0.059013844 0.791427
0000f0 ff d8 6d 3e 49 b5 1a 3d 42 3f 52 c0 82 1a 60 be
       0.23227309 0.037770543 -3.285111 -0.21885112
000100 db 33 2e bf e5 2b 62 be 3d 43 e7 3e b6 6e 00 bf
       -0.68047875 -0.22087057 0.45168486 -0.5016893
000110 36 b7 88 3e 10 4a 8e 3d 82 25 55 3f 68 03 59 bd
       0.2670228 0.0694772 0.8326036 -0.052981764
000120 44 88 9d 3d ba 51 18 ba f6 5c 0a bd ff 2f 1e 3e
       0.07692006 -0.0005810518 -0.03378006 0.15447997
000130 1b 24 a5 bd 72 31 84 3c 1c d5 aa bf f7 a5 7f bf
       -0.08063527 0.016136859 -1.3346286 -0.9986262
000140 4b ff b8 be d7 a9 bd bb 7a 38 28 3e 1e ae c5 be
       -0.36132273 -0.0057880688 0.16427794 -0.38609403
000150 61 01 09 3f 0b 96 c1 3e 43 33 a3 bf f6 32 61 3d
       0.5351773 0.37809786 -1.2750019 0.05498024
000160 95 42 26 bf d0 90 c6 3e a3 34 be be ac af 6d be
       -0.64945346 0.38782358 -0.37149534 -0.23211545
000170 cf f6 e8 3e e5 84 11 bf d8 9d 15 bf 5e a4 8c 3d
       0.455008 -0.56843406 -0.58443975 0.06867288
000180 8c 54 37 3e 5c 3d 95 bf f2 54 81 3d 49 8d 28 3f
       0.17903346 -1.165935 0.0631503 0.65840584
000190 53 c1 0c bf 6a 12 a2 3e f3 dd 82 3d 44 e4 d8 3e
       -0.5498249 0.31654674 0.0638999 0.42361653
0001a0 61 3c d6 3d 56 79 11 bf 47 17 68 be 73 ee 31 3d
       0.10460735 -0.5682577 -0.2266513 0.043440294
0001b0 36 0d 38 bc 92 84 e4 3d 2a 58 bd 3f 76 f4 36 bf
       -0.0112336185 0.11158098 1.479253 -0.7146677
0001c0 f0 0a cd 3d 7a 41 2c be b1 93 d3 3b 81 eb 39 3f
       0.10011852 -0.16821852 0.006456815 0.72624975
0001d0 5c 38 2d bf bc 88 7c bd a6 f6 3f c0 39 fd 5f 3e
       -0.6766412 -0.061653838 -2.9994292 0.2187394
0001e0 de 21 db be b8 b7 a2 3e 11 6f 28 3c b8 64 dc 3d
       -0.42799276 0.3178079 0.010280387 0.10761398
0001f0 e8 be a2 bf d5 a5 9a be 5d 02 cb 3f f2 e4 23 3e
       -1.271451 -0.30204645 1.5860096 0.16005304
000200 df 97 29 3d 7e 96 8d 3e 75 cb 7c bd 84 f8 65 3e
       0.0414046 0.2765388 -0.06171747 0.22458082
000210 8f 41 b9 3e 5c 0c 4c 3c bc 83 31 c0 26 9a 4f 3f
       0.3618283 0.012454119 -2.7736654 0.81094587
000220 cb 11 15 3e 4a 04 ed bd 9b 1c 37 bd b5 3a ae be
       0.14557569 -0.11573084 -0.044705015 -0.34029165
000230 ae e2 6b 3e c6 f1 10 bd bc 28 38 40 e5 54 2c 3f
       0.2303569 -0.035386823 2.8774862 0.6731704
000240 70 5f 04 3e 6d a4 fa 3e 85 74 9f 3e a4 17 a2 be
       0.12927032 0.48953572 0.31143585 -0.3165866
000250 00 4a 67 3d 13 57 1a bc 61 fd 82 c0 04 4c f4 3c
       0.056467056 -0.009420174 -4.09343 0.029821403
000260 8c e6 32 3e 06 8a 96 be 94 f7 7d bc 03 76 07 3f
       0.17470759 -0.2940218 -0.015500922 0.52914447
000270 28 5e 19 be 6e 69 eb 3c 96 e3 57 bf 82 7b 52 3d
       -0.14977324 0.028736796 -0.84331644 0.051387317
000280 f6 00 ab be 94 57 f5 3a 82 55 af be 72 de 0f bf
       -0.3339917 0.0018718117 -0.34244925 -0.561988
000290 58 74 9f bf b0 a8 a3 be 50 8f 98 bf 09 15 8e be
       -1.245738 -0.31964636 -1.1918736 -0.27750424
0002a0 91 14 2a 3f 55 ff 0c bf ac 49 05 bd cd 2e d6 bd
       0.6643763 -0.55077106 -0.032540962 -0.10458145
0002b0 7f 7c 16 bf 5b b8 4d 3e 7c ed d7 bf 19 e4 06 be
       -0.58783716 0.20089857 -1.686935 -0.1317295
0002c0 51 5e 85 bc c0 a6 54 bf 35 72 3c 3e 6f 7c 70 3e
       -0.016280325 -0.8306694 0.18402942 0.23484968
0002d0 e9 ca 16 be 25 8f fd 3b 67 30 c6 bf 32 df c6 3b
       -0.14725842 0.0077380114 -1.5483521 0.0060690874
0002e0 ed e3 10 3e 17 26 4e be fc ac e0 bd 7e 6d c5 3e
       0.14149447 -0.20131718 -0.10970494 0.38560098
0002f0 cb 6f d6 3d b0 bb 96 3d 35 40 0f c0 f2 e2 fb 3e
       0.104705416 0.07360017 -2.238294 0.49196583
000300 f0 a7 27 3d 54 84 40 3d 4a 22 a2 bc 8e c7 80 3c
       0.040931642 0.047001198 -0.01979174 0.015720155
000310 3b 9a 45 bd 33 f6 26 3c 2e 04 eb bf 8e e8 c5 3e
       -0.04824279 0.010190534 -1.836065 0.38653988
000320 e5 1f 0e 3f 90 f6 4d bf 10 f9 7a 3d ea cf 6c bf
       0.5551742 -0.8045435 0.06127268 -0.9250475
000330 54 f9 d7 be fd 27 01 3e 98 6f aa 3f bd a7 e0 be
       -0.4218241 0.1261291 1.3315306 -0.43877974
000340 4d 44 dc 3e 39 29 10 be 11 7c 70 be d0 d1 bb 3c
       0.4302086 -0.14078225 -0.23484828 0.022927195
000350 5a 27 96 3e cd c5 9f 3e 0c f5 63 3f 3f 74 12 3f
       0.29326898 0.31205598 0.89045787 0.5720863
000360 17 07 96 3d b6 04 41 3f 14 4c 71 bd 6e 6c 88 bf
       0.07325571 0.75397813 -0.058910444 -1.065809
000370 9b aa 7f bf bf 26 3a be a2 72 d0 be 07 b2 24 3f
       -0.998697 -0.18178843 -0.40712458 0.6433415
000380 0c 1d 08 bf 04 96 bb 3e 5b af e5 bd fd ed 35 3e
       -0.5316932 0.3663789 -0.11215087 0.17766567
000390 d8 02 ef be b1 e1 b2 3d 64 77 9a 3f de a7 09 bf
       -0.46681857 0.087344535 1.2067685 -0.5377177
0003a0 17 a6 59 bf d8 5a 74 bf 0c b1 92 bd 58 8b ed 3e
       -0.8501906 -0.95451117 -0.07162675 0.46395373
0003b0 65 c8 d1 3e d9 10 7d be 05 df df bf 3c 40 7e 3e
       0.409732 -0.24713458 -1.7489935 0.24829191
0003c0 cc 13 48 3e c5 c2 27 be 85 4c 45 be 08 2a 28 be
       0.19538802 -0.16382892 -0.19267471 -0.16422284
0003d0 40 7d a8 be 7e a4 45 3e 8f 34 94 3f e6 79 37 bf
       -0.32908058 0.1930103 1.157854 -0.7167038
0003e0 5f 5d 94 be 59 36 29 be 02 3c d1 3d 85 76 98 bd
       -0.28977486 -0.16524638 0.10216524 -0.07444481
0003f0 b6 e6 3e be c6 3e 3c 3b cd a3 9b c0 9a 8c 02 3f
       -0.18642697 0.002872394 -4.863745 0.5099579

fc1.bias f4 [128]
000000 43 f8 31 bf bc 65 31 bf 3f bb 03 3e 4d 39 f1 be
       -0.6951944 -0.6929586 0.12864397 -0.4711403
000010 b3 a4 59 3e 70 f1 0e bf 65 44 26 bf d5 ed fe bd
       0.21254234 -0.55837154 -0.6494811 -0.124477066
000020 a0 11 9a be fa 4c 57 bf 88 2e d4 bd 01 36 92 be
       -0.30091572 -0.8410183 -0.10360438 -0.28556827
000030 21 f3 a5 bd c0 d8 8f 3c 9d 1b 10 3e 6c f0 80 3d
       -0.08103014 0.01755941 0.14073034 0.06295857
000040 7a ff 2e bf ee 7f f5 3e 83 59 de be 8a 49 3b 3f
       -0.68358576 0.47949165 -0.43427667 0.73159087
000050 84 ac 4d 3e 51 18 8f 3e 08 d2 07 3f 67 8e c0 3c
       0.2008534 0.2794824 0.5305486 0.023505403
000060 94 a9 fd 3e 1c 7e de 3e ca 1d 25 bf 3a b2 fc be
       0.4954344 0.4345559 -0.6449858 -0.49354726
000070 af 3e 19 be bb 9b 72 3e f5 2e aa 3e c7 10 e5 3e
       -0.14965318 0.23692219 0.3323895 0.44739363
000080 fa f4 1d bf a0 6a 8e 3e 1c 81 f9 3e a7 92 13 bd
       -0.6170193 0.27815723 0.48731315 -0.03602853
000090 61 25 fd 3e fc 3b ef 3d 36 88 ad bd 85 a0 19 3e
       0.4944258 0.11681363 -0.08473246 0.1500264
0000a0 ae 6e 02 bf d7 0a 8d 3e ea 92 d1 be 0e 82 6f 3e
       -0.50950134 0.27547333 -0.409324 0.23389456
0000b0 09 98 87 be 04 34 0b be 6d 16 f1 3e e9 3a 4f 3e
       -0.2648318 -0.13594061 0.47087422 0.20237316
0000c0 23 6f ec be 3c e5 0e be 65 ee 0b be 05 91 b6 be
       -0.4617854 -0.13954633 -0.13665159 -0.35657516
0000d0 9c f9 17 3f c8 40 54 bf 8c ed 2e 3e 09 6f a2 3e
       0.5936525 -0.8291135 0.17082804 0.31725338
0000e0 37 0e 29 bf 73 91 c9 be 4a d0 31 3f d4 48 6f be
       -0.66037315 -0.3936878 0.6945845 -0.23367625
0000f0 54 fb 1f be ea a0 07 3e a3 90 0a 3f 87 4a 05 3f
       -0.15623218 0.13244978 0.5412695 0.52066845
000100 55 19 88 bd 3b a3 8c be dc e1 c6 be 14 17 04 bf
       -0.06645457 -0.27468285 -0.38844192 -0.51597714
000110 94 59 a7 3e 6f 0d 78 3d dc 73 b1 3e 3b 8a 82 bc
       0.3268553 0.060559686 0.34658706 -0.015935054
000120 7c 75 f0 3e 36 5c cf 3d 0a 85 40 3e 0d 6e 5f bf
       0.46964633 0.1012501 0.1880075 -0.872773
000130 5f 6b 7c 3e c1 0d 26 bf 5d 72 cc be 7c 26 72 bd
       0.24650334 -0.64864737 -0.39931002 -0.059118733
000140 80 89 9f 3d 9b c6 c2 3e f1 7a 89 be a7 a2 61 bc
       0.07789898 0.3804215 -0.2685161 -0.0137716895
000150 c8 3e db bd c8 e0 dc be 9c c3 c3 be 5a 9e 2f 3e
       -0.10705334 -0.43140244 -0.38235176 0.1715025
000160 f2 a5 b1 3d 85 69 d1 3d 4c d2 c6 3e 15 93 0c 3e
       0.0867423 0.102252044 0.3883232 0.13727982
000170 7e 9d 2c bf 17 c1 01 3e ce 68 b9 bd 86 40 b9 3d
       -0.67427814 0.12671314 -0.09053193 0.0904551
000180 3d cb 13 3f 5e 11 ae be 91 ca 41 be 58 8d 4f 3e
       0.5773199 -0.33997625 -0.18924929 0.20268762
000190 19 19 e7 3e 88 43 0c be 31 ef 9d be dc 55 b6 bd
       0.45136335 -0.13697636 -0.3084655 -0.08903095
0001a0 17 ff 43 bf b4 53 12 bf d8 2e f2 be 6b 18 f7 3e
       -0.7656111 -0.5715897 -0.47301364 0.48260817
0001b0 a8 d7 1f bf 1e a4 8a bd 9b c8 f9 be 72 79 0d 3e
       -0.6243844 -0.06769584 -0.48785862 0.13815859
0001c0 4b f3 05 3f cf c7 20 3d 1a ab 8c 39 a2 ad f6 be
       0.5232436 0.039253052 0.00026830361 -0.48179346
0001d0 05 c8 4e be ef ba 02 3f 9b 50 47 bb 64 e4 c0 3e
       -0.20193489 0.5106649 -0.0030413035 0.37674248
0001e0 f9 3e f4 3e 2a 9a 10 3f e7 e7 8f 3c eb 92 95 be
       0.47704294 0.56485236 0.017566634 -0.29213652
0001f0 19 e1 5d 3e 8e 69 0c bf 69 d0 2a be e8 47 9b bd
       0.21667899 -0.54848564 -0.16681065 -0.075820744

fc2.weight f4 [128, 128]
000000 49 fd 7a bd 9e 7c a1 bd 66 f5 6e bd 35 bb 22 be
       -0.061276708 -0.07885097 -0.0583395 -0.15891726
000010 8f fd 7f bc d8 6f b8 3d 20 c4 c8 bd b5 d0 16 bd
       -0.015624418 0.090057075 -0.09803033 -0.036820132
000020 78 f9 0a be c3 60 06 bd ef 0a c6 3c 0f 7c f3 bc
       -0.13571727 -0.032807123 0.024175135 -0.029722242
000030 c5 97 63 3d bf 2b b8 bd c1 ed 1d bb 17 18 18 be
       0.05556466 -0.08992719 -0.0024098011 -0.1485294
000040 0d a1 c9 bd b7 8a b8 3a 73 46 1a bd 63 5b e2 3c
       -0.09845171 0.0014079426 -0.03766484 0.027631467
000050 36 65 87 bd 4a cf 9f 3d 4f 13 5c 3d 80 1b b4 bd
       -0.06611101 0.07803209 0.05372935 -0.08794308
000060 59 f5 e7 bd a7 ba a0 bd 40 62 94 bd 47 c3 19 be
       -0.11326093 -0.07848101 -0.07245302 -0.15015899
000070 a0 14 d5 bd 39 90 e0 bd 23 e3 25 3c 76 3d b4 bd
       -0.104043245 -0.10965008 0.010124954 -0.08800785
000080 48 87 4b bd 18 95 ad 3c d9 eb 98 3c b0 a7 dc bd
       -0.04968956 0.021189258 0.018667148 -0.10774171
000090 19 b7 9f bd 7c ac b5 bc 82 5f 8e bd 62 a6 12 bc
       -0.07798595 -0.022176974 -0.069518104 -0.008950802
0000a0 86 e4 ba bd c3 66 2c bd e6 b8 cc bd 43 08 0d 3d
       -0.09125619 -0.04209019 -0.09996204 0.034431707
0000b0 92 13 16 3d b6 0a 75 bc 91 ff 62 3d e0 a5 a3 bd
       0.036639757 -0.014956167 0.05541951 -0.079906225
0000c0 2c 96 9f 3a ea 5f 74 bd da 72 a7 3d 18 73 2d be
       0.0012175492 -0.059661783 0.08176203 -0.16938436
0000d0 e3 9d 9e bd 3f b1 26 bd c1 c0 9a 3d 5e 2d 23 3d
       -0.07744958 -0.04069638 0.07556296 0.039838187
0000e0 cd 7e 39 3c 70 8c 1e be 74 ea c0 bd 0f ac 21 bd
       0.011321736 -0.1548326 -0.094197184 -0.03947073
0000f0 2f 8c 02 bd 18 e1 4d bd f5 c3 c2 3b 71 1c 53 bd
       -0.03187197 -0.050263494 0.00594377 -0.051540796
000100 59 bf 3c bd a5 65 34 3d 2a ef 34 3d 89 09 82 3d
       -0.04608092 0.04404225 0.044173397 0.06349475
000110 c0 07 fb bd 8f 22 5c be db 17 9d bd fc 90 3c 3c
       -0.122573376 -0.21497558 -0.07670566 0.011509176
000120 6c 49 9b bd f6 84 c5 bd 41 0c 9e bd c9 54 1b be
       -0.075823635 -0.09644501 -0.07717181 -0.15169062
000130 75 77 b0 bd 5a 46 7d 3c 4e 7a 13 3d 8e 63 d6 bc
       -0.086165346 0.015458668 0.03600531 -0.026170518
000140 2a f4 82 ba da 14 a3 3d c4 4d cd bd b2 cc b3 bd
       -0.000999098 0.079629615 -0.10024598 -0.08779277
000150 eb 59 36 bd fc 2c 2b be b1 0d 92 3d 39 d4 30 bd
       -0.044519346 -0.16716379 0.07131518 -0.04317114
000160 33 7b 04 be f1 cd 7a bd f5 4a 9d bd 83 b7 17 bc
       -0.12937622 -0.061231557 -0.076803125 -0.009260061
000170 2e 8e 0f be fb 84 9f bd b3 9f 88 3d 19 c2 cc 3d
       -0.14019081 -0.07789036 0.06671085 0.09997959
000180 e3 d0 80 bd 22 92 a3 3c d1 73 d5 bb 0b 0c 8b bd
       -0.06289842 0.019967142 -0.0065140505 -0.067894064
000190 81 51 be 3c 1c be db bd 90 6f af bd cc 08 d9 bd
       0.023232223 -0.1072962 -0.08566201 -0.10597381
0001a0 31 b1 ac ba 20 6f 62 bc 32 7a 6d 3a c9 41 c6 bb
       -0.0013175366 -0.01382044 0.0009059041 -0.0060503227
0001b0 72 cc 35 bd d1 db be bd 03 01 12 bc 19 e9 3e be
       -0.044384427 -0.093192704 -0.008911374 -0.18643607
0001c0 b3 ee 27 bd a5 9d 10 3d 8a ec 83 bd 7e 28 27 bd
       -0.040999126 0.03530659 -0.064416006 -0.0408101
0001d0 32 46 55 bd 97 15 13 3a 52 40 02 3d d7 cb 56 bd
       -0.052068897 0.0005610822 0.031799622 -0.05244049
0001e0 ea 2e c9 bd 09 22 0e b9 af de 2c be 72 bc cc bd
       -0.09823401 -0.00013554854 -0.16881822 -0.099968806
0001f0 fe d4 8b 3d 60 63 81 bd 5d c0 51 be 30 0a b8 bd
       0.068277344 -0.063177824 -0.20483537 -0.08986318
000200 d1 10 a3 bd f9 11 da bd 14 26 fe 3d 5f 9c ce bc
       -0.07962192 -0.10647959 0.124096066 -0.025221048
000210 a9 24 0b 3e 22 ab ad bd ea 21 c2 bd cd 84 37 3e
       0.13588203 -0.084799066 -0.09479125 0.17921753
000220 66 57 89 be ee dd 0e bf 02 f9 3a 3e dc 16 86 3e
       -0.26824492 -0.5580739 0.18259051 0.26189315
000230 a8 c6 79 bf e5 2c 01 bf d5 99 26 bd 7d 98 b8 bd
       -0.9756875 -0.5045913 -0.04067405 -0.0901346
000240 d8 07 76 bf 8c 5b b5 bf f7 76 93 3e 36 24 10 3e
       -0.9610572 -1.4168563 0.288017 0.14076313
000250 76 b3 0f 3f 1f 43 b8 3e 96 7d e3 3d f7 b7 1c bf
       0.5613321 0.3598871 0.11107938 -0.6121821
000260 d6 60 3b be 4a 3f db be 75 21 74 be f3 29 4a be
       -0.18298659 -0.42821723 -0.23840888 -0.19742565
000270 cf dc 8b bf b1 fa 80 bd a1 aa 22 bf fe 87 05 bf
       -1.092676 -0.062978156 -0.6354161 -0.5216063
000280 2b 8c aa be 8c 4f 3a bf 78 2c a7 be c9 79 7b bf
       -0.33310065 -0.7277763 -0.32651114 -0.98232704
000290 2c 86 77 3e dc ab 72 3e 27 4c a7 3e 2b 56 24 3e
       0.24172276 0.23698372 0.32675287 0.16048495
0002a0 2c 9d 40 3e db 34 d8 3e 2d c8 6d 3d bd ba a2 be
       0.18809956 0.42227826 0.05805223 -0.31783095
0002b0 b3 63 e5 3c b0 a0 9d bb 5c fa b7 3e ad 3a 53 be
       0.028001642 -0.004810415 0.35933197 -0.20627852
0002c0 98 7d 46 3f 64 a5 8c 3e 3a 54 b2 be 87 a5 88 3c
       0.7753539 0.27469933 -0.34829885 0.016680492
0002d0 e7 08 cd bf 10 e3 23 3d 2c 6a 8d be 63 2a 60 3e
       -1.6018342 0.040011466 -0.27620065 0.21891169
0002e0 a5 38 46 3f 54 ce 9e 3e 6e 2e 96 3d 66 bf 92 be
       0.7743018 0.3101679 0.073330745 -0.2866165
0002f0 03 82 17 3e 48 98 70 3d 65 20 6d be 98 86 a8 3d
       0.1479569 0.058738977 -0.23156889 0.08228797
000300 18 9d d0 3e 64 b9 f3 be 7c 12 94 be 7f 4b 7a be
       0.40744853 -0.4760238 -0.28920352 -0.24442862
000310 2e be 7a 3e f9 08 a1 3a 82 5a 3e 3e 49 02 c0 3e
       0.2448661 0.0012285999 0.18589213 0.37501743
000320 e9 bf 18 3e d4 1b 90 bd 70 00 8d 3e a9 65 f1 3e
       0.14916958 -0.07036558 0.27539396 0.47147873
000330 42 ee 1e 3c 0d a9 ae bf 4c 3a bc bd 93 78 0f bf
       0.00970036 -1.364534 -0.09190807 -0.56043357
000340 e3 06 c8 be eb df 94 3e 18 c2 19 be 0d 4c 44 3e
       -0.39067754 0.29077086 -0.15015447 0.19169636
000350 54 84 c5 bc 39 ce e0 3e 47 b5 35 3e 5c 3e 48 3e
       -0.02411095 0.43907335 0.17744933 0.19555038
000360 fc 0e 99 3e 34 1c 47 3e 89 58 38 3e aa 69 1f 3e
       0.29894245 0.19444352 0.18002523 0.15567651
000370 63 ea 85 3e 6c 89 18 be d3 1b 24 3e 86 b7 17 bc
       0.26155385 -0.14896172 0.16026239 -0.009260064
000380 a5 78 9a bf 93 c9 c9 bd 47 7f 3b 3e 39 92 5d bd
       -1.2068068 -0.098529 0.18310271 -0.054094527
000390 b0 e0 34 bf d8 79 82 be b7 c7 50 bd ae d8 05 be
       -0.70655346 -0.25483584 -0.050971713 -0.13070938
0003a0 d1 93 35 bf 6d b0 a8 bf 44 95 b9 3d c3 9e 28 3e
       -0.70928675 -1.3178841 0.09061673 0.16466813
0003b0 2d 17 e6 be 95 21 a8 be 3d a9 4d be a0 40 b3 be
       -0.44939557 -0.3283812 -0.2008409 -0.35010242
0003c0 42 b8 6d 3e 95 83 dd 3d 76 a3 09 3e e9 ab 8e bf
       0.2321482 0.10816113 0.13441262 -1.1146213
0003d0 f7 54 c7 be d3 97 b5 3e 9c cd ac be ca c4 34 3e
       -0.3893201 0.35467395 -0.33750618 0.17653194
0003e0 96 63 23 3d 5e cc 9b 3e 4b f1 3c 3e 8f 4e 8f be
       0.039889894 0.30429357 0.18451421 -0.27989623
0003f0 64 4b dc 3d ce 75 64 bf 19 33 24 bf 12 78 8b bf
       0.10756567 -0.89242256 -0.6414047 -1.0896018

fc2.bias f4 [128]
000000 91 87 cd bc a7 bf 43 bd 1a 48 c6 bb 7b e7 48 3f
       -0.025089057 -0.047790196 -0.0060510756 0.7847821
000010 c6 3e 7a 3e cd dc 12 3f 4f 4c dc 3e b9 93 15 bd
       0.24438009 0.57368165 0.4302697 -0.036517832
000020 de 87 2b bd e0 8f 63 3d 7f 4e 0a be da cd e2 bd
       -0.04187762 0.05555713 -0.13506506 -0.11074419
000030 4a 1e fa 3e 93 70 33 3f a6 7a 27 3f 8f 74 f4 3e
       0.48851234 0.7009365 0.6542152 0.47745177
000040 20 62 51 3a 40 88 da 3d e8 37 bf bc 84 61 06 bb
       0.0007987339 0.10670519 -0.023342088 -0.0020504901
000050 1b 80 26 bc 4e d9 9b bd 53 00 0d 3e cd c1 69 bc
       -0.010162379 -0.07609807 0.13769655 -0.014267397
000060 9e ad 06 be d8 17 31 3e 7d c6 1f 3d 0d d9 62 3d
       -0.13152167 0.17294252 0.039007653 0.055382777
000070 df 4a e7 bc 64 4f 91 bd dc df b9 3e f0 39 e4 3e
       -0.028233944 -0.07095221 0.36303604 0.44575453
000080 a9 a4 13 bc db 7d 31 3d a9 36 c1 3e 31 aa 61 bd
       -0.009011426 0.043332916 0.37737015 -0.055093948
000090 98 1f d0 3e e4 1f 16 bb 1c 9c 97 bd 4f 50 08 3c
       0.40649104 -0.0022907192 -0.074028224 0.008319928
0000a0 98 57 11 3d 68 0b bf 3d 6c 08 0a 3e dd c0 92 3c
       0.035483927 0.093283474 0.13479775 0.01791423
0000b0 47 10 30 3c fc e3 e5 bd c7 ef 2a bd 71 41 7a 3e
       0.010746068 -0.11225125 -0.041732576 0.24439026
0000c0 42 9c 15 bd f5 1c 18 3e 30 d4 e4 3c 80 8a 89 3d
       -0.036525972 0.14854796 0.02793321 0.0671587
0000d0 21 47 c3 bd ca e1 0a 3e b5 92 fa bd a4 17 b8 bd
       -0.09535051 0.13562694 -0.122350134 -0.08988884
0000e0 74 81 45 3e f0 93 87 bd da 54 e5 3c 4d ea c6 3e
       0.19287664 -0.06620014 0.027994562 0.38850632
0000f0 be 45 7a 3e 38 15 9b be 03 2a ed bd 79 f8 f4 3e
       0.24440667 -0.30289626 -0.11580279 0.4784582
000100 89 a8 10 3f f6 f3 c3 be 85 95 57 3c 12 07 01 be
       0.56507164 -0.38272065 0.013158207 -0.12600353
000110 b1 a0 ac 3d 46 d6 2c bd 92 17 48 bd 86 4a e5 bd
       0.08429087 -0.042196535 -0.048850603 -0.11195855
000120 79 56 f1 3e b3 c1 de 3d fa a6 0a be 47 77 1f 3e
       0.47136286 0.10876789 -0.13540259 0.15572844
000130 d5 39 2f be 9e c0 2c 3f 3f 97 2a 3e 75 72 aa bd
       -0.17111905 0.6748141 0.16659258 -0.08322612
000140 cd 49 be 3e 6f 44 76 bd 57 20 3e be 4e f8 30 3f
       0.3716568 -0.060123857 -0.18567024 0.6912888
000150 22 0b 24 bd 26 3d c7 bd d0 05 18 3f ad 4c ed 3d
       -0.04004968 -0.0972846 0.5938387 0.1158689
000160 ff b0 df 3e 15 ab 9f 3d fe 4d 5b 3d 3a 92 2b 3e
       0.43689725 0.07796303 0.053541176 0.16755
000170 f2 11 94 bd f8 18 6e be 52 59 10 bf 8b 78 1d 3c
       -0.07229985 -0.23251712 -0.5638629 0.009611259
000180 4a 48 5b bd 6c e9 3a 3d 31 cd d7 bd 38 88 1e be
       -0.053535737 0.045632765 -0.10537184 -0.15481651
000190 ec d8 02 be cb da 63 be e2 f4 0d 3f a3 67 9c bc
       -0.12778062 -0.22251432 0.55451787 -0.019092387
0001a0 d9 07 fd bd a8 8d 9a bd af 54 37 bd 6d 23 58 3c
       -0.123550124 -0.0754655 -0.044758495 0.01319204
0001b0 b3 20 93 3d 0d d2 9f 3e 0b 69 a7 3c 91 3a 3d bd
       0.07183971 0.31214944 0.02043583 -0.04619843
0001c0 5a db d1 3e 65 22 ea bd a9 66 9f bd 5b 9f 91 bc
       0.40987664 -0.114323415 -0.07783253 -0.017776182
0001d0 de 1f 39 bd 69 2a 67 3e 5a 53 03 bd e9 bd f3 bd
       -0.045196407 0.22574772 -0.032061912 -0.11901457
0001e0 a1 33 0e 3f b0 d8 16 3f 6b 69 4d 3d 83 dd 0d be
       0.5554753 0.5892439 0.050149363 -0.13854031
0001f0 df 61 2b 3d 74 44 b9 bd 42 1a 84 bd 90 cd 90 bd
       0.041841384 -0.090462595 -0.06450321 -0.07070458

fc3.weight f4 [2, 128]
000000 6a 7c 4d 3a a5 a1 28 bf 9d 9f c9 bb ef dd 88 3e
       0.00078386685 -0.6587165 -0.0061530606 0.26731822
000010 ca 83 ed 3e b3 ae c1 3e 92 f2 5c 3e ee e0 64 ba
       0.4638961 0.37828597 0.21576908 -0.0008731027
000020 47 b7 d1 3d 88 f5 ac bf 92 7c 71 3d c9 ba 1f 40
       0.102400355 -1.351243 0.05895669 2.4957755
000030 57 5f 6a 3e 7a c8 a8 bd 2c e1 3a 3f 30 2a 2e 3e
       0.22887932 -0.08241363 0.72999835 0.17008281
000040 28 08 bc 3b 86 d2 16 3e 31 b9 90 3d 46 1e 8c 3d
       0.005738277 0.14728746 0.070665725 0.06841712
000050 12 02 75 bd 4d 1a 50 bd b0 1a dd 3f 02 65 7c 3c
       -0.059816428 -0.050806332 1.7273769 0.0154049415
000060 2c 6a 79 3d 91 c9 a6 bc 34 2d be bc 6f 74 a0 bf
       0.06089227 -0.020359786 -0.023214914 -1.2535533
000070 9e 63 98 3b 7d 5c d6 bc f0 f0 62 3e 84 34 29 3f
       0.004650547 -0.026167149 0.22162223 0.6609576
000080 df b3 a2 3c d7 d8 4d bb e0 5f 05 3f ce 2f e7 bb
       0.01986116 -0.0031409764 0.5209942 -0.0070552593
000090 b3 f7 28 3f a5 1e 68 3f de dc bb 3b ab 27 91 3c
       0.6600296 0.9067176 0.0057331165 0.01771911
0000a0 33 d6 4a bf 4a 3e 88 3f 5c f5 01 3e d0 4f 8a bd
       -0.7923309 1.0644009 0.12691253 -0.06753504
0000b0 25 4d 9f bd 18 bd a4 3b 6b 3a ca bc 29 02 b0 3f
       -0.07778386 0.0050274245 -0.024686059 1.3750659
0000c0 49 ff 8f 3e d2 ba 2c bf 66 71 84 3e d6 ee 05 3f
       0.28124455 -0.67472565 0.25867766 0.5231756
0000d0 b3 71 d6 3c 8b 32 24 3f 2e 0f 99 bc 06 a3 75 bc
       0.026177263 0.6413962 -0.018683996 -0.014992481
0000e0 94 04 3d bf 4d 86 0f bd e0 96 26 3f 59 52 6b 3f
       -0.7383511 -0.03504019 0.65073967 0.9192253
0000f0 5c 18 24 bf 4e 8f 30 3f cc 6f f7 bb fd 1c 75 be
       -0.6409967 0.68968666 -0.007551169 -0.2393684
000100 66 0f 5d 3f 3d 70 68 be 9f a4 8f bc 2c 91 31 3e
       0.8635162 -0.22699066 -0.017534552 0.17340535
000110 3b c9 b4 be 4f bd a2 bc d7 b3 3d bf 89 b5 76 3d
       -0.35309777 -0.01986566 -0.7410254 0.06023172
000120 b2 5e 5b 3f ab 44 21 bf 2c 82 46 3e c2 32 e4 3f
       0.8569137 -0.62995404 0.19385594 1.782799
000130 d2 f0 b2 3f d8 5f 09 3e b2 80 67 bf d6 58 40 3f
       1.3979743 0.13415468 -0.9043075 0.7513555
000140 1e 8b 8a 3e c3 28 8f be 40 75 3d 3f 66 0b 83 3e
       0.27059263 -0.27960786 0.74007034 0.25594634
000150 4a f4 9f bc 00 55 7e bc 4e a3 b4 3e 95 ac 8a bb
       -0.019525666 -0.015523195 0.35280842 -0.004231999
000160 37 63 c3 3e 1a 66 76 3e 0a 1d ef be b7 cb 61 3e
       0.38161632 0.24062386 -0.46701843 0.22050367
000170 72 32 b4 bc a7 5a 19 bf d1 cd df be 0b ef b0 ba
       -0.02199671 -0.5990395 -0.43711713 -0.0013498975
000180 86 28 5c bc 41 13 fa bc 22 42 c5 3d 29 de 3a 3e
       -0.013437396 -0.03052676 0.096317545 0.1824881
000190 b7 99 c2 3d bb 5f a8 bc 4c 06 37 3e ca e6 85 3d
       0.09501975 -0.02055346 0.17873496 0.0653816
0001a0 82 93 65 bd a9 fe f9 3b 30 fb 0d 3c b7 b0 42 3a
       -0.056048878 0.007629235 0.008665845 0.0007426845
0001b0 b9 42 2d 3f 86 8b 60 3f 43 41 52 bf 92 25 54 bd
       0.67679936 0.87712896 -0.8213083 -0.051793642
0001c0 00 bb 1f bd 59 18 02 3c cd 26 ba 3d 61 51 42 3e
       -0.038996696 0.007940375 0.09089432 0.18976356
0001d0 39 86 51 3c 6a 92 bd 3f 0e 59 d9 bc e1 37 ca 3c
       0.012788349 1.4810307 -0.026531722 0.024684848
0001e0 74 1e 0f 3f 9b af db 3e c1 56 89 be b3 7d 50 3e
       0.5590584 0.42907414 -0.26824 0.2036045
0001f0 46 d5 33 bc 68 03 44 3d df c2 26 3e 3f 7d 4b 3b
       -0.010976141 0.04785481 0.16285275 0.0031049994
000200 96 43 08 3d 29 69 ab be 9c b4 5c bd 10 8f 8c 3e
       0.03326758 -0.33478668 -0.05388318 0.27452898
000210 3d 11 2f 3f 76 f1 8b 3e 9d 09 a7 3e a4 b1 83 3c
       0.6838568 0.27332658 0.32624522 0.016075917
000220 96 a1 28 3e df 5c 48 3f c4 cb 78 bd 3d a7 28 3f
       0.1646789 0.7826671 -0.0607412 0.65880185
000230 09 c8 b5 be b0 df 27 3f 85 00 6b 3e 49 ab 9f 3e
       -0.35504177 0.65575695 0.22949417 0.31185368
000240 c5 8b 98 bc 82 5e 19 3f b8 1c 81 3d 22 6a 13 bc
       -0.018621335 0.5990983 0.06304306 -0.008997472
000250 37 37 f3 bb bc b8 c5 3c 7e db db 3f 07 2e 99 bc
       -0.0074223536 0.02413594 1.7176359 -0.018698705
000260 d3 b3 13 3d a9 5d a6 be 10 68 4e bd 9b c6 20 3f
       0.036060166 -0.32493332 -0.05039221 0.6280305
000270 3b 2f fb 3c 16 25 fa 3b 4a d4 83 3e 39 5e 42 3f
       0.03066217 0.0076338155 0.257479 0.7592502
000280 c9 0d 8a b9 d5 36 c0 be be 1e 79 3e 66 5a 9e 3c
       -0.00026331682 -0.37541834 0.24328133 0.019330215
000290 68 5a f2 3e 6a 53 84 3f 83 f6 39 3b 4e 2f 64 3c
       0.473346 1.0337956 0.0028375692 0.013927294
0002a0 67 bd 2a bf 29 06 93 3f 04 27 95 3e 86 eb 25 bc
       -0.66695255 1.1486255 0.2913133 -0.010126954
0002b0 61 5c 74 b7 fa 48 9a 3b 64 2e 9e bd 22 95 92 3f
       -1.4565042e-05 0.0047084065 -0.07723692 1.1451762
0002c0 23 61 3b 3e 65 09 25 bf 99 fb 50 3e 94 0d 13 3f
       0.18298773 -0.6446746 0.20408477 0.57442594
0002d0 29 95 5b b9 10 61 84 3e 2d 36 59 3c b2 ba 46 bc
       -0.00020941034 0.25855303 0.013257545 -0.012129473
0002e0 36 db 23 be f9 82 32 bc e3 8f ce 3f d8 f7 37 3f
       -0.16001591 -0.010895484 1.6137661 0.71862555
0002f0 45 9a 3c bf ba 05 4b 3f c9 3b c0 bc 61 e2 91 3e
       -0.73672897 0.79305613 -0.023466008 0.28493026
000300 73 13 68 3f e9 d1 34 be a2 6f 3a 3b ca 5c ac 3d
       0.9065468 -0.176582 0.0028447886 0.084161356
000310 1b 13 21 be 3c 6d 19 bc 47 1d 1e bf 50 80 60 3d
       -0.15729944 -0.009364422 -0.61763424 0.05480987
000320 7c e5 05 3f a1 a4 0f bf 67 8e 09 3e 6c 34 c4 3f
       0.5230329 -0.5611058 0.13433228 1.5328498
000330 a4 3f 97 bd a4 34 ae 3e db 10 40 bf 13 ff 0b 3f
       -0.07385185 0.34024537 -0.7502572 0.5468609
000340 73 91 47 3f f9 4f a3 bf bf a2 51 3f c1 39 6b 3e
       0.7795631 -1.2758781 0.81888956 0.2297125
000350 92 15 b3 3c a5 28 a6 bc 63 83 0e 3e 50 8c bc 3f
       0.021860871 -0.020283053 0.13917308 1.473032
000360 57 0c e5 3e 49 04 aa bd bd 7e 27 bf 19 f6 a1 3e
       0.44735977 -0.083015986 -0.6542776 0.3163307
000370 73 37 6f 3d 76 b2 53 bf c8 63 d5 be aa 22 c6 bc
       0.05840249 -0.82694185 -0.4167769 -0.024186451
000380 0c d0 94 bd 19 da 34 bd b0 31 8c 3c cf f0 f9 3d
       -0.07266244 -0.044153307 0.017113537 0.12204134
000390 3c 7a c9 3d a3 5e d8 3e f1 a1 48 3e 1d da 09 bb
       0.098377675 0.42259702 0.19593026 -0.0021034547
0003a0 7a c8 9f bc e9 7a 13 bc ce 86 4c bc 79 cb 96 bb
       -0.019504774 -0.009001472 -0.012483312 -0.0046018925
0003b0 9a 72 2f 3f 11 54 56 3f 6b b6 9c bf 6d 09 41 3d
       0.68534243 0.83722025 -1.224317 0.04712813
0003c0 68 b3 a2 3d 82 1f 82 3c cd e1 70 bd 81 66 17 3e
       0.07944375 0.015884165 -0.05880909 0.14785196
0003d0 d0 7b 32 3d 19 8d bb 3f d0 fd 01 3d 98 d4 03 3d
       0.043575108 1.4652435 0.031736195 0.032185167
0003e0 00 cc 06 3f 9a 38 17 3f e9 0e 63 be 8a 80 3b 3e
       0.5265503 0.5907074 -0.22173657 0.18310753
0003f0 97 74 95 3c 57 bd 21 3d 2b 29 33 3c b3 20 98 39
       0.018244071 0.03948721 0.010935108 0.00029016062

fc3.bias f4 [2]
000000 33 d4 57 3f e5 87 33 3f
       0.84308165 0.70129234
