blob_compete/blob2_weights.npz (npz, 73126 bytes, 6 tensors)

w1 (column-major) f4 [8, 128]
0	0x3e1437dd	0.14474435
1	0xbd533235	-0.051561553
2	0xbcc5fa06	-0.024167072
3	0x3f3b0c43	0.73065585
4	0xbf7ac0ef	-0.97950643
5	0x3e363184	0.17792326
6	0x3fc9f7b3	1.5778717
7	0xbe14f1b5	-0.14545329
8	0xbeb7b74c	-0.35882032
9	0xbec46cc6	-0.38364238
10	0x3c9a7316	0.018853705
11	0x3dbbb157	0.09164684
12	0xbdede65a	-0.11616202
13	0x3c558515	0.0130322175
14	0xbe1f494e	-0.15555307
15	0x3c34db65	0.011038636
16	0x3ef0326f	0.46913478
17	0xbf9d6b81	-1.2298433
18	0xbde9f174	-0.11423007
19	0x3ea04230	0.31300497
20	0xbf03b955	-0.5145467
21	0x3e5e89da	0.21732274
22	0xc0187157	-2.3819177
23	0xbecc2570	-0.39872313
24	0xbdc6c036	-0.0970463
25	0xbd0b8fa5	-0.034072537
26	0x3cf0faad	0.029416407
27	0xbdd969e3	-0.106158994
28	0x3d903b09	0.0704251
29	0xbc88a2fe	-0.016679283
30	0xbfdd73fc	-1.7301021
31	0xbf8ec2f2	-1.1153243
32	0x3ee9bb81	0.45650867
33	0x3e6d8a8c	0.23197383
34	0xbd8c0db1	-0.06838549
35	0xbe14f22f	-0.1454551
36	0xbe8ae070	-0.27124357
37	0x3d441a11	0.04787642
38	0xbf8a2b94	-1.0794549
39	0xbe1481b2	-0.145026
40	0xbeae7ec5	-0.34081092
41	0xbe8426ea	-0.2581094
42	0xbc3c8329	-0.01150588
43	0x3eeba4c4	0.46024144
44	0x3ea635e7	0.32463
45	0xbdf00384	-0.117194206
46	0x40152d80	2.330902
47	0xbea2741b	-0.31729206
48	0x3e779408	0.24177563
49	0xbe91ccfd	-0.28476706
50	0x3da50ce5	0.080591
51	0x3ee24197	0.44190666
52	0x3ed00dba	0.40635473
53	0xbd0957ca	-0.033530988
54	0xbfbdaeac	-1.4818931
55	0x3f1f5591	0.6223994
56	0xbf872cba	-1.0560524
57	0xbe4bb663	-0.19893794
58	0x3ea8bd1e	0.32956785
59	0xbf87cb1b	-1.0608858
60	0x3f534c5d	0.82538396
61	0x3ccae084	0.02476526
62	0x3e8c13aa	0.27358752
63	0x3e3a3a7a	0.1818637
64	0x3ea083f7	0.3135068
65	0x3e84f8ce	0.25971073
66	0xbef1ebff	-0.47250363
67	0xbe7272a2	-0.23676541
68	0x3e92be2c	0.28660715
69	0xbc9e7dff	-0.019347189
70	0xbfe9cdd2	-1.8265936
71	0xbdfbabca	-0.122886255
72	0x3e4a4fda	0.19757023
73	0x3f02a077	0.510261
74	0x3bd4041a	0.0064702155
75	0x3ea95a76	0.3307683
76	0xbf93ac27	-1.1536912
77	0xbe0298d8	-0.12753618
78	0x3ed9f363	0.42568502
79	0x3e9fda89	0.31221417
80	0x3e62ef41	0.2216158
81	0x3ccd1b44	0.025037415
82	0xbcc3f157	-0.02391879
83	0xc00d2e71	-2.2059596
84	0xbebb8a49	-0.3662894
85	0xbdaa5d3b	-0.083185636
86	0xbef99721	-0.48748115
87	0x3d4903e9	0.049075995
88	0xbe3b95e7	-0.18318902
89	0xbe3ec841	-0.18631078
90	0xbd9450a8	-0.072419465
91	0xbe9a0de7	-0.30088732
92	0x3bc9bffd	0.00615692
93	0x3ca6cac4	0.020360358
94	0xc03c95dd	-2.946647
95	0x3f7e867e	0.9942397
96	0xbe33c0e5	-0.17554052
97	0xbef21877	-0.4728429
98	0x3e3b3189	0.18280615
99	0x3ed787fe	0.4209594
100	0x3e49a9db	0.19693701
101	0xbe87807b	-0.2646521
102	0xc044b6cd	-3.0736573
103	0x3f0625c7	0.52401394
104	0xbe1c78e7	-0.15280496
105	0xbe86b6c5	-0.26311317
106	0x3ead0a65	0.33796993
107	0xbe68eeb4	-0.22747308
108	0x3e08163d	0.13289733
109	0x3e5854fd	0.2112617
110	0xbff338ea	-1.9001744
111	0x3f0290b6	0.5100206
112	0xbeed676b	-0.46367964
113	0x3e7aaf82	0.24481013
114	0x3df29136	0.11844103
115	0x3e88498a	0.26618606
116	0xbf003131	-0.5007506
117	0x3e3a9622	0.18221334
118	0xc0326305	-2.7872937
119	0xbe202e55	-0.15642674
120	0xbfa85aa2	-1.3152659
121	0xbef7b250	-0.4837823
122	0xbebede3b	-0.37278923
123	0x3bbe80b4	0.0058136825
124	0x3e63b780	0.22237968
125	0x3e90aff2	0.28259236
126	0xbfd0b2ad	-1.6304528
127	0xbe9b9492	-0.30386788
128	0xbe12669c	-0.14296955
129	0x3f77c912	0.96791184
130	0xbc9c5774	-0.01908467
131	0xbfa46d1f	-1.2845801
132	0xbd6d665e	-0.057958953
133	0xbd2b7881	-0.04186297
134	0x3fdf2754	1.7433877
135	0x3eb3a7bc	0.3508891
136	0xbdbe8dde	-0.09304403
137	0xbe768078	-0.24072444
138	0xbd85f40e	-0.0654069
139	0x3e9f9ec1	0.31175807
140	0xbf1faca0	-0.6237278
141	0xbdfea6da	-0.12434168
142	0xc0756b76	-3.834684
143	0x3e2dce64	0.16973263
144	0xbe9de92f	-0.30841967
145	0xbf4017fd	-0.75036603
146	0xbdc0dced	-0.09417138
147	0xbd3812ab	-0.04493968
148	0x3f1c62e0	0.6108837
149	0xbe42c1b3	-0.19019203
150	0x3f1edda5	0.6205695
151	0x3d98a593	0.07453456
152	0xbe129832	-0.1431587
153	0x3f811e83	1.0087436
154	0xbce5735f	-0.028009115
155	0xbf0c2243	-0.5473978
156	0xbdf79564	-0.12089041
157	0x3e0c3c0f	0.13694786
158	0x3f62f9d9	0.8866249
159	0xbef44958	-0.47712207
160	0xbecad1e3	-0.39613256
161	0x3e315239	0.17316522
162	0xbd78730e	-0.0606566
163	0x3e963fd8	0.29345584
164	0x3e7e56d3	0.24837808
165	0xbe4eece5	-0.20207556
166	0x4014e024	2.3261805
167	0x3d59e273	0.053194474
168	0xbf2c8586	-0.6739124
169	0xbe070a27	-0.13187467
170	0x3ec80f8d	0.39074364
171	0x3eb14434	0.34622347
172	0xbf13ee59	-0.57785565
173	0x3ea0710f	0.31336257
174	0x3f2108e0	0.6290417
175	0x3f0a7d5a	0.5409752
176	0x3e5c8cd1	0.21538092
177	0xbe882a06	-0.2659456
178	0xbe267d89	-0.16258825
179	0x3e832f1c	0.2562188
180	0x3e5ef82b	0.21774356
181	0xbe538c68	-0.2065903
182	0xc03a2029	-2.908213
183	0x3e156a7b	0.145914
184	0xbedfce93	-0.4371229
185	0xbf0cc5f9	-0.5498958
186	0xbe09a5b5	-0.13442118
187	0xbeea93ba	-0.4581583
188	0xbef725e4	-0.48271096
189	0x3eca306b	0.39490065
190	0xbf8ab838	-1.0837469
191	0x3eb756ba	0.35808355
192	0xbc356db7	-0.011073521
193	0x3eab2686	0.3342783
194	0x3e6ed84c	0.23324698
195	0x3e355695	0.1770881
196	0x3f06086c	0.523566
197	0xbd801fe8	-0.06256086
198	0x3e36279e	0.1778855
199	0x3e954381	0.29153064
200	0x3ebe18e5	0.37128368
201	0x3f2605eb	0.6485278
202	0x3e8b5004	0.27209485
203	0xbf0aee02	-0.5426942
204	0xbf346db2	-0.7047988
205	0x3e729ea8	0.23693335
206	0x3fbbcb3e	1.46714
207	0xbf055090	-0.52076054
208	0x3dc817d0	0.09770167
209	0xbee47550	-0.44620752
210	0x3ec6ba94	0.38814223
211	0x3d44843c	0.04797767
212	0xbe021d2a	-0.12706438
213	0x3c4cd09f	0.012500911
214	0xc028757a	-2.6321702
215	0xbe850af1	-0.2598491
216	0xbdd447e0	-0.103652716
217	0x3f1969a5	0.59926826
218	0x3e7252f3	0.23664455
219	0x3f336981	0.7008286
220	0xbee6d1bd	-0.45081893
221	0x3dcdaea2	0.10043074
222	0xbe9e3ba3	-0.30904874
223	0x3e6f7646	0.23384961
224	0xbedc60fb	-0.4304274
225	0x3b199486	0.0023434474
226	0xbe9635b2	-0.2933784
227	0xbf0e2eab	-0.5553996
228	0xbad7371f	-0.0016419626
229	0x3ec542f6	0.3852765
230	0x3f3e5f4e	0.74364173
231	0xbf52fca2	-0.8241674
232	0xbf3fd4c6	-0.7493404
233	0xbe49c515	-0.19704087
234	0x3f065f70	0.52489376
235	0x3eb981dd	0.3623189
236	0xbf818412	-1.011843
237	0x3d8abcaf	0.0677427
238	0x3fe89f1b	1.8173555
239	0xbe698b5a	-0.22807065
240	0x3db9c305	0.090704
241	0xbedd315d	-0.43201724
242	0x3e568c31	0.20951916
243	0x3e12202a	0.14270082
244	0xbdbed9dc	-0.09318897
245	0x3e0cc888	0.13748372
246	0x3fe63cec	1.7987342
247	0xbf229a8f	-0.6351709
248	0x3f31a75f	0.69396013
249	0xbe746e3a	-0.23870173
250	0xbd82252f	-0.063547485
251	0xbf6390b9	-0.88892704
252	0x3e9d5f39	0.30736712
253	0x3d6a3980	0.057183743
254	0x400af0b1	2.1709406
255	0x3d804332	0.062628165

b1 f4 [128]
0	0xbf0473a5	-0.5173896
1	0xbe6858db	-0.22690146
2	0x3dc3dec6	0.09563975
3	0xbf4337bf	-0.76256937
4	0x3e96ed83	0.29478082
5	0x3c7e608c	0.015525948
6	0xbf09c8f4	-0.53822255
7	0x3ea76803	0.32696542
8	0xbf2e19a2	-0.6800786
9	0xbe0e9e3b	-0.13927548
10	0x3f092d4b	0.53584737
11	0xbe82f76b	-0.2557939
12	0xbd6b8e2a	-0.057508625
13	0x3dec8ebc	0.11550662
14	0x3e72944e	0.23689386
15	0xbd86f2bf	-0.06589269
16	0xbeebad07	-0.46030447
17	0x3e97f848	0.2968161
18	0x3e34600e	0.17614767
19	0xbf05d126	-0.5227226
20	0xbd290ce7	-0.04127207
21	0xbf108f19	-0.5646835
22	0xbe24715f	-0.16058873
23	0x3e88740c	0.26651037
24	0xbf1981bb	-0.5996358
25	0xbf32c5eb	-0.6983325
26	0xbd20dd82	-0.039273746
27	0xbee82de8	-0.45347524
28	0xbebbcf7c	-0.36681736
29	0xbe7d9b58	-0.2476629
30	0x3e2374bb	0.15962498
31	0xbd803843	-0.06260731
32	0xbee2c7d3	-0.4429308
33	0x3e3722d8	0.17884386
34	0xbea8538d	-0.32876244
35	0x3ea285d3	0.31742725
36	0xbee1d23a	-0.44105703
37	0xbefc0ff8	-0.49230933
38	0xbea30825	-0.3184215
39	0xbe9e0760	-0.30865002
40	0xbeb5bfd2	-0.3549791
41	0x3ef2629c	0.47340858
42	0xbee828ed	-0.45343724
43	0xbf10fb81	-0.56633765
44	0xbf1b3c47	-0.6063885
45	0x3c24aee4	0.010051463
46	0x3f181a62	0.59415257
47	0x3eacb12b	0.33728918
48	0xbeb533bd	-0.35391036
49	0xbe281e57	-0.16417824
50	0xbea7f7e1	-0.32806304
51	0xbeaa4961	-0.3325911
52	0x3e97f58c	0.29679525
53	0x3f4dab51	0.80339533
54	0xbc0a64eb	-0.008446912
55	0xbe8fcc32	-0.28085476
56	0xbed3fbdc	-0.4140309
57	0x3e68888e	0.22708341
58	0xbf1d61a4	-0.6147711
59	0xbe0f1102	-0.13971332
60	0x3e220b47	0.15824614
61	0xbeecf3b9	-0.46279696
62	0x3f256db5	0.64620525
63	0x3e2770df	0.1635165
64	0xbf455e0f	-0.7709665
65	0x3e26a9d8	0.16275728
66	0x3eedaa78	0.4641912
67	0xbf074ecb	-0.52854604
68	0xbe511e95	-0.20421822
69	0x3e77a038	0.24182212
70	0x3f0027ee	0.5006093
71	0x3eee296e	0.46515983
72	0xbe36f730	-0.17867732
73	0xbe883cc7	-0.2660887
74	0x3e30cbd9	0.17265262
75	0x3ed8bc6a	0.4233125
76	0xbf0c4e18	-0.5480666
77	0x3e9ab215	0.3021399
78	0x3eb13940	0.3461399
79	0xbe651b27	-0.22373639
80	0xbda85ee6	-0.082212254
81	0xbd337de8	-0.043821245
82	0xbf0a10f2	-0.53932106
83	0x3e8a9162	0.27064043
84	0x3ec35bb4	0.381559
85	0x3e5c8cea	0.2153813
86	0xbe86ae81	-0.2630501
87	0xbd8484d9	-0.06470651
88	0x3dd0565b	0.10172721
89	0x3e908311	0.28224996
90	0x3ea007eb	0.3125604
91	0x3eac6c9e	0.33676618
92	0xbf0ab5ac	-0.5418346
93	0xbf44e5ce	-0.76913154
94	0x3e0fd35a	0.14045468
95	0xbeca1dde	-0.39475912
96	0xbe818c37	-0.25302288
97	0xbee5c097	-0.44873497
98	0x3efdd921	0.4957972
99	0x3bc1b90a	0.005911951
100	0x3f0bfd75	0.5468362
101	0x3ea67af5	0.32515684
102	0xbe8305ec	-0.25590456
103	0x3ec9b119	0.39392927
104	0xbef30c3e	-0.47470278
105	0x3e8b53d2	0.27212387
106	0xbf01108b	-0.5041587
107	0xbf24ce6b	-0.6437747
108	0xbf10efc7	-0.5661587
109	0xbd09659e	-0.033544175
110	0xbefdf2e5	-0.49599376
111	0xbf3d252b	-0.7388484
112	0x3eb91248	0.3614676
113	0xbe08f8d0	-0.13376164
114	0xbeac0a54	-0.3360163
115	0xbe630995	-0.22171624
116	0xbee1f2c1	-0.4413052
117	0x3ed5ea5e	0.4178037
118	0xbf1e4363	-0.61821574
119	0xbf126d18	-0.57197714
120	0xbf089b7b	-0.53362244
121	0xbe17e801	-0.14834596
122	0x3e32cc3a	0.17460719
123	0xbf0105eb	-0.50399655
124	0xbecc89b2	-0.39948803
125	0x3ee2590f	0.4420857
126	0x3f051edf	0.5200023
127	0xbde3191c	-0.110887736

w2 (column-major) f4 [128, 128]
0	0xbf0431a6	-0.5163826
1	0x3d9bdead	0.076108314
2	0x3e79b27d	0.24384494
3	0xbd3287dd	-0.0435866
4	0x3ba506ac	0.0050361957
5	0x3e95b011	0.2923589
6	0xbe31e515	-0.17372544
7	0x3f27191a	0.65272677
8	0xbe7c2076	-0.24621758
9	0x3e2c6455	0.16835149
10	0x3ea7bfeb	0.3276361
11	0x3bbecc6f	0.00582271
12	0xbeb34130	-0.35010672
13	0xbfa243e4	-1.2676969
14	0x3fc23efc	1.5175471
15	0xbf982c7d	-1.1888577
16	0x3e90c9b5	0.2827889
17	0xbc879314	-0.016549625
18	0x3be8afb2	0.0071010226
19	0xbe671669	-0.22567143
20	0x3de29a36	0.1106457
21	0xbfebd00d	-1.8422867
22	0xbd58dfcd	-0.052947808
23	0x3ecc298d	0.3987545
24	0x3ac73054	0.0015196898
25	0xbf559978	-0.834373
26	0xbf096894	-0.536752
27	0xbd94285a	-0.07234259
28	0x3eb0df33	0.34545287
29	0xbda9a9cd	-0.0828434
30	0x3dd24f4b	0.1026903
31	0x3efd5744	0.4948064
32	0xc0129f00	-2.2909546
33	0x3ebaea70	0.36506987
34	0x3d3b7a90	0.04577118
35	0xbf291b04	-0.6605685
36	0x3d3a8fd7	0.045547333
37	0x3ed8f036	0.42370766
38	0xbd32dc5a	-0.043667175
39	0xbf76b20f	-0.96365446
40	0xbdb8b893	-0.0901958
41	0xbe984935	-0.29743353
42	0xbf75ea09	-0.96060234
43	0x3f0f4b2c	0.5597408
44	0xbe52794b	-0.20554082
45	0xbe38d8c0	-0.18051434
46	0x3e2814b7	0.16414152
47	0xbf9e0f1f	-1.2348365
48	0xbccf453e	-0.025301572
49	0xbf368145	-0.71291
50	0x3da56bcb	0.080772005
51	0x3d8dff7c	0.069334954
52	0x3f28baba	0.6590992
53	0x3e0e746f	0.13911603
54	0xc000ed9f	-2.0145032
55	0xbeb1d80f	-0.34735152
56	0x3e89f5aa	0.2694524
57	0x3e453861	0.19259788
58	0x3eb49b65	0.35274807
59	0xbcc02369	-0.023454385
60	0xbdc13fd0	-0.094359994
61	0x3d4299ea	0.047510065
62	0xbe217f18	-0.15771139
63	0xbed965e7	-0.42460558
64	0x3eba9189	0.3643916
65	0xbe28ba46	-0.16477308
66	0xbf439e32	-0.7641326
67	0x3bfd4e17	0.0077302563
68	0xbdaff2db	-0.08591243
69	0x3eff7ec4	0.49901402
70	0x3d3a1d3a	0.04543803
71	0xbf636301	-0.8882294
72	0x3e54b71a	0.20772973
73	0xbfc4c308	-1.5372019
74	0xbed53d7d	-0.41648474
75	0xbdc1c492	-0.09461321
76	0xbeba673a	-0.3640688
77	0xbf254820	-0.6456318
78	0xbe5912b7	-0.21198545
79	0xbd46ee14	-0.048566893
80	0x3f0f8459	0.5606132
81	0x3dc62381	0.096747406
82	0xbfbb0e8a	-1.4613812
83	0x3e0ed89a	0.13949814
84	0xbd45da2a	-0.04830376
85	0x3d179247	0.037004735
86	0x3f53b377	0.82695717
87	0xbeba1a50	-0.363482
88	0xbbb9bb0d	-0.00566805
89	0x3e773de0	0.24144697
90	0xbd6fb21e	-0.058519475
91	0xbdd1dabd	-0.10246799
92	0xbc42eded	-0.011897546
93	0x3e8bf0a5	0.27332035
94	0xbe5b083a	-0.21389857
95	0x3dd5bcfb	0.10436436
96	0xbe224ee5	-0.15850408
97	0xbdd533c9	-0.10410268
98	0xbe8f6d9c	-0.28013313
99	0x3edaa2b8	0.4270227
100	0xbeb78b3c	-0.35848415
101	0xc016e6a1	-2.3578265
102	0xbde29da4	-0.11065224
103	0xbe93da41	-0.28877452
104	0xbcb6ed6b	-0.022330007
105	0x3eb37cb1	0.3505607
106	0x3dac526f	0.084141605
107	0x3f2e0819	0.67981106
108	0xbee9d025	-0.45666614
109	0xbdd6a250	-0.104801774
110	0x3ec7a7cd	0.3899521
111	0x3d82a1fc	0.06378552
112	0xbddaf15c	-0.10690567
113	0xbe67c5e3	-0.22634082
114	0x3e897b13	0.2685171
115	0x3f65e0c5	0.89796096
116	0xbcf64d3c	-0.030066125
117	0x3e6cf814	0.2314151
118	0x3d75fc0a	0.060054816
119	0xc00c2650	-2.1898384
120	0xbeb09987	-0.34492132
121	0x3e406fc8	0.18792641
122	0x3ddfadab	0.109217964
123	0x3d0bad16	0.034100614
124	0xbc832e52	-0.016013298
125	0x3f6931d6	0.9109167
126	0x3f6a9e17	0.91647476
127	0x3e4b608b	0.19861047
128	0xbd9941ca	-0.074832514
129	0x3da9edd2	0.08297314
130	0x3c2f3010	0.010692611
131	0x3cabf1af	0.020989267
132	0xbd62ef18	-0.0554038
133	0xbd87174c	-0.065962404
134	0xbc02c553	-0.007981616
135	0xbdc4b45c	-0.09604713
136	0x3c9c6dcc	0.019095324
137	0xbd68c044	-0.056823984
138	0x3bfff1e6	0.007810819
139	0x3d14bcd3	0.03631289
140	0xbd79898b	-0.060922187
141	0xbd1b1a84	-0.037867084
142	0x3cac79af	0.021054117
143	0xbdab8dd5	-0.08376662
144	0x3d8706ea	0.06593116
145	0x3d23bb5e	0.03997361
146	0xbb3bfb7e	-0.0028683837
147	0xbcdd896b	-0.027043065
148	0xbd8af4d7	-0.06784981
149	0x3b6a3443	0.0035736717
150	0x3d5e7eb5	0.054320056
151	0xbd045803	-0.032310497
152	0xbd935178	-0.07193273
153	0xbcfaa5a7	-0.030596567
154	0xbd1e4bfd	-0.038646687
155	0x3c4a8e4e	0.01236303
156	0x3d009288	0.031389743
157	0xbdbebb66	-0.09313087
158	0xbc390854	-0.0112934895
159	0x3d3ef68e	0.04662185
160	0xbb9f2276	-0.004856403
161	0xbdd282a7	-0.10278826
162	0xbc8a54e2	-0.016886178
163	0xbcdc754b	-0.026911398
164	0xbce714ab	-0.028208097
165	0xbd0a1727	-0.033713486
166	0x3d8f95db	0.070110045
167	0xbc73d291	-0.014881746
168	0x3cccd491	0.025003703
169	0xbd9a5b04	-0.07536891
170	0x3ce5800b	0.028015157
171	0x3da07021	0.07833887
172	0xbd8d3698	-0.068951786
173	0xbd8592e5	-0.065221585
174	0xbd4ffc0b	-0.050777476
175	0xbdabe1ba	-0.08392663
176	0x3d096f15	0.0335532
177	0x3d7cba3f	0.061701056
178	0x3d736a6e	0.05942767
179	0xbc7cfcf1	-0.015441165
180	0xbc87480b	-0.016513845
181	0xbc8f2e08	-0.017478004
182	0xbc8c69e6	-0.01714034
183	0x3db48055	0.0881354
184	0x3d535dff	0.051603314
185	0xbd9bfeba	-0.076169446
186	0xbcb06e58	-0.021536991
187	0xbce0fad2	-0.02746335
188	0xbdca85e3	-0.09888818
189	0x3d92c06e	0.07165609
190	0x3cc731ab	0.024315676
191	0xbd1dcbb7	-0.038524356
192	0x3d421f7f	0.04739332
193	0xbb55da65	-0.0032631394
194	0xbcd0f39a	-0.025506783
195	0x3d67ecda	0.056622364
196	0x3d3283fe	0.04358291
197	0xbddc2de4	-0.107509404
198	0x3d07cb3b	0.0331528
199	0xbd8db0b1	-0.06918467
200	0x3d63a89c	0.05558072
201	0x3d7b1f68	0.06130925
202	0x3bc143cb	0.005897974
203	0xbd4ae366	-0.04953327
204	0x3c1ec334	0.009690095
205	0x3d09b7ca	0.03362254
206	0x3d10cae9	0.03534976
207	0xbdc7a144	-0.09747556
208	0xbd6ba0f8	-0.05752656
209	0x3d41d2c7	0.047320154
210	0xbd78abd7	-0.060710754
211	0x3b8ebadd	0.004355772
212	0x3d0f96f2	0.035056062
213	0xbdab9f4f	-0.08379995
214	0xbd8b262f	-0.06794392
215	0x3d166fcd	0.036727715
216	0xbd9dc9ed	-0.0770453
217	0xbd3ff02a	-0.046859898
218	0x3d0068cd	0.031349946
219	0x3c9a9b52	0.01887289
220	0x3cef7eb3	0.02923522
221	0xbc95f47e	-0.01830506
222	0xbdc2ad50	-0.09505713
223	0xbdadcbf7	-0.08486169
224	0xbcc99dcb	-0.024611374
225	0xbdaadedd	-0.08343289
226	0xbd827fff	-0.063720696
227	0x3b5989d0	0.0033193715
228	0x3d20a55e	0.039220206
229	0xbc0abf1b	-0.008468415
230	0xbdb7279e	-0.08943103
231	0xbbbbae67	-0.0057275775
232	0xbdaee348	-0.08539444
233	0x3d75b1dc	0.059984073
234	0x3cde9203	0.027169233
235	0xbdb26fa3	-0.08712699
236	0xbdb3e8dc	-0.08784649
237	0xbd77b7e9	-0.060478125
238	0xbdc45656	-0.0958678
239	0xbd964939	-0.07338185
240	0xbdaa6b83	-0.083212875
241	0x3adbc450	0.001676688
242	0xbd7dbc60	-0.061947227
243	0xbc54fdf0	-0.012999997
244	0x3c8c0274	0.017091013
245	0x3d937d76	0.07201664
246	0xbac341df	-0.001489695
247	0xbca3a9d3	-0.01997844
248	0xbca60aad	-0.020268762
249	0xbd8b2cd9	-0.067956634
250	0xbc35cd92	-0.011096375
251	0xbd407d9f	-0.0469948
252	0x3d8673bd	0.06565044
253	0xbdb03a2f	-0.08604848
254	0xbdd39d79	-0.1033277
255	0xbcb70d7b	-0.022345295

b2 f4 [128]
0	0x3e3c7bb9	0.18406571
1	0xbd935bdb	-0.071952544
2	0xbe0ca7de	-0.13735911
3	0x3f34fefc	0.70701575
4	0x3d3fdb48	0.046839982
5	0xbce837ee	-0.028346982
6	0x3c642ef6	0.013927212
7	0xbd1475b6	-0.03624507
8	0x3d2d80b1	0.042359058
9	0x3f3d2149	0.73878914
10	0xbd16b4b0	-0.03679341
11	0xbd9de431	-0.0770954
12	0xbd225d03	-0.039639484
13	0x3f057121	0.52125746
14	0xbd75369e	-0.05986654
15	0xbac31a09	-0.0014885078
16	0x3cce26c3	0.025164967
17	0x3da68cf7	0.08132356
18	0x3e43807d	0.19091983
19	0x3e18aac1	0.14908887
20	0xbd63d2d3	-0.05562098
21	0x3ef63e2f	0.48094317
22	0xbd99f962	-0.07518269
23	0xbdb08946	-0.08619933
24	0x3ea3bbb7	0.31979153
25	0xbdfe02d2	-0.12402882
26	0xbebddc75	-0.37082258
27	0x3c03779d	0.0080241235
28	0x3e806a6e	0.250812
29	0x3cc80f3e	0.02442133
30	0xbc85e2c7	-0.016343487
31	0x3b4d8c96	0.0031364313
32	0xbda582fe	-0.080816254
33	0xbdafeec7	-0.08590465
34	0x3e3bcdfd	0.18340297
35	0x3dddb6fc	0.10825917
36	0xbd24df51	-0.040252034
37	0x3ebfcbfc	0.37460315
38	0xbe22e6d9	-0.15908374
39	0xbd972dd4	-0.07381788
40	0xbdc3153e	-0.09525536
41	0xbd57c611	-0.052679125
42	0xbdc22310	-0.09479344
43	0x3e13aa14	0.14420348
44	0xbbb2d20e	-0.0054571694
45	0x3e0cdb72	0.13755587
46	0xbdd966ac	-0.10615286
47	0xbd5c17b4	-0.053733543
48	0xbd9b5efb	-0.075864755
49	0xbd59c104	-0.05316259
50	0xbd824a85	-0.0636187
51	0xbdd9fb7b	-0.10643669
52	0x3f5295e8	0.8225999
53	0xbe93d1da	-0.28871042
54	0xbd88b75a	-0.066755965
55	0xbddc3e04	-0.10754016
56	0x3f306e0e	0.6891793
57	0xbdd754a6	-0.10514192
58	0x3d100aa0	0.035166383
59	0x3f4f53c9	0.8098722
60	0xbb3618b9	-0.0027785732
61	0x3e4265b1	0.18984105
62	0x3f79818a	0.97463286
63	0x3de334b3	0.11094036
64	0xbdda7b66	-0.10668068
65	0x3e20287a	0.1564044
66	0xbdb88937	-0.09010547
67	0x3d0ea0bf	0.03482127
68	0xbd879cc4	-0.066216975
69	0xbe122257	-0.14270912
70	0x3e351a30	0.17685771
71	0xbdaea594	-0.08527675
72	0x3e9126c1	0.2834988
73	0x3e40d343	0.1883059
74	0x3eb20777	0.3477132
75	0x3f12d9e6	0.57363737
76	0x3ea9ed84	0.33189023
77	0x3e02e1f6	0.1278151
78	0x3e65fd58	0.22459924
79	0x3f1d55c1	0.61458975
80	0xbdc552ce	-0.09634934
81	0xbd075aa8	-0.03304544
82	0xbd67ede7	-0.056623366
83	0xbd3b5721	-0.04573739
84	0xbeea9c62	-0.45822436
85	0xbe0268b6	-0.12735257
86	0x3c94ddb8	0.01817213
87	0x3cb94664	0.022616573
88	0x3f72a54e	0.94783485
89	0x3e8f3055	0.27966562
90	0x3b723c9f	0.0036962403
91	0x3e85a2cd	0.2610077
92	0x3e5414a3	0.20710997
93	0x3e9fe890	0.3123212
94	0xbdde1455	-0.10843722
95	0xba199998	-0.0005859374
96	0xbd0a13b8	-0.03371021
97	0x3d8d0170	0.0688504
98	0xbdce7959	-0.10081739
99	0xbd6b7609	-0.057485614
100	0xbd55515f	-0.052079555
101	0x3d610c0f	0.05494314
102	0xbdaba0b5	-0.08380262
103	0x3b7fbfa3	0.0039024136
104	0x3f4f230d	0.8091286
105	0x3e8a54d9	0.2701786
106	0x3ed0cc20	0.40780735
107	0xbcfac17e	-0.030609842
108	0x3e60314a	0.21893802
109	0x3e922a5e	0.2854795
110	0xbdb5d520	-0.08878541
111	0xbd56bc0e	-0.052425437
112	0x3eb55522	0.35416514
113	0xbd917ccf	-0.071038835
114	0x3ef49d4c	0.47776258
115	0x3cdc770e	0.026912238
116	0x3cd9627e	0.026536223
117	0xbdfc5e8b	-0.1232272
118	0x3d7c7bca	0.061641492
119	0x3efb1181	0.49036792
120	0xbdf8a93d	-0.12141655
121	0xbda3fe99	-0.08007545
122	0xbd3e6d53	-0.04649098
123	0xbd09b45d	-0.033619273
124	0xbdb66ff2	-0.089080706
125	0x3e1d023f	0.15332888
126	0xb9c090da	-0.00036729017
127	0x3e0a3ed9	0.13500537

w3 (column-major) f4 [128, 2]
0	0x3e4e133c	0.20124525
1	0x3adbcf5d	0.0016770173
2	0xbc380dca	-0.011233756
3	0x3e86beab	0.26317343
4	0x3f917619	1.1364166
5	0x3ac3706b	0.0014910823
6	0xbcd88af5	-0.026433447
7	0xbca67efb	-0.02032422
8	0x3fd87553	1.6910805
9	0x3eaee92b	0.34162268
10	0xbd53a0e1	-0.051667098
11	0x3c2ad344	0.010426346
12	0x3f19df78	0.6010661
13	0x3eed3356	0.4632823
14	0x3ccfe86b	0.02537938
15	0xbc8eafea	-0.017417867
16	0x3e45ed40	0.19328785
17	0x3ed09a99	0.4074295
18	0x3e9fc7d0	0.31207132
19	0xbf80375a	-1.0016892
20	0x3cd287f2	0.02569959
21	0x3e8fbdfe	0.2807464
22	0xbd79b91e	-0.060967557
23	0xbca04a57	-0.019566698
24	0x3fb07b7c	1.3787684
25	0x3afe4053	0.0019397832
26	0xbf0b845e	-0.5449885
27	0xbcb1d955	-0.021710077
28	0x3e7b2b51	0.24528243
29	0xbcdf564b	-0.027262827
30	0x3d61756a	0.055043615
31	0xbf119b9a	-0.56878054
32	0xba9698d8	-0.0011489643
33	0x3d6e65cc	0.05820255
34	0xbf1fa252	-0.62357056
35	0xbff134ba	-1.8844216
36	0xbbabdf2c	-0.00524511
37	0x3e2e4a1e	0.17020461
38	0xbf46d93c	-0.77675223
39	0x3d30c9e3	0.043161284
40	0x3d070ec1	0.032973055
41	0xbd4f6dd2	-0.050641842
42	0xbd29bd6b	-0.04144041
43	0xbf18afe7	-0.59643406
44	0x3d23acfd	0.039959896
45	0x3fb871b8	1.4409704
46	0x3ac7cb7b	0.0015243137
47	0x3c74f2eb	0.014950494
48	0xbf19c739	-0.60069615
49	0xbf75df95	-0.96044284
50	0x3b87ed32	0.004148149
51	0xbe4659b3	-0.19370155
52	0x3eab060a	0.33403045
53	0x3d91145c	0.07083961
54	0xbc81c87c	-0.015842669
55	0xbb566fef	-0.0032720526
56	0x3f2d703c	0.6774938
57	0xbd3477f0	-0.044059694
58	0xbebd19e6	-0.3693382
59	0x3eee1066	0.46496886
60	0x3b94685b	0.0045290417
61	0x3f6163c8	0.8804288
62	0x3eac9aba	0.33711797
63	0x3e95b25f	0.2923765
64	0x3d98cc44	0.074608356
65	0x3f96f3c5	1.1793143
66	0xbcbe2a87	-0.023213638
67	0x3dea0a7d	0.11427782
68	0xbb979736	-0.00462618
69	0xbf84f6f2	-1.0387862
70	0x3e3c4cd5	0.18388684
71	0x3bcce6a8	0.0062530823
72	0x3db9cc1d	0.09072135
73	0x3fc282c1	1.5196153
74	0x3e653a44	0.22385508
75	0x3e6781e2	0.2260814
76	0x3eab7b1c	0.33492362
77	0xbe1cf10b	-0.15326326
78	0x3eb41e66	0.35179442
79	0x3ed3b679	0.41350153
80	0x3cb4e41a	0.022081424
81	0x3ab798e4	0.0014007357
82	0xbdd73a62	-0.105091825
83	0xbbaa7564	-0.0052019823
84	0xbe908379	-0.28225306
85	0x3ccb6431	0.024828048
86	0xbd1b85d1	-0.037969414
87	0xbe94340d	-0.28945962
88	0x3f074fc8	0.5285611
89	0x3f475d18	0.77876425
90	0xbcfb2633	-0.030657863
91	0x3e2abc27	0.16673337
92	0xbe4a3a2b	-0.19748752
93	0x3f46e6ba	0.7769581
94	0xbcd1071b	-0.025516083
95	0x3ce527ca	0.027973074
96	0xbecb8e22	-0.39756876
97	0xbf8ac60b	-1.0841688
98	0x3f02ed72	0.5114356
99	0xbcad0093	-0.021118438
100	0x3d2a2b0f	0.04154497
101	0x3fb7f2f2	1.4371016
102	0x3ce2028d	0.027589107
103	0x3e97b51f	0.29630372
104	0xbdc1501f	-0.0943911
105	0x3f3da390	0.740777
106	0x3f26680b	0.65002507
107	0xbbe5ab9a	-0.007008982
108	0x3f70d357	0.9407248
109	0x3eaa24de	0.33231252
110	0xbd0b2d0f	-0.033978518
111	0xbd04e9b3	-0.032449435
112	0x3edfe458	0.437289
113	0xbedc1352	-0.4298349
114	0x3f9d0065	1.2265745
115	0xbee077d5	-0.43841425
116	0xbccda466	-0.025102805
117	0xbc54b5b8	-0.012982778
118	0xbf19654b	-0.59920186
119	0x3fea82bb	1.8321146
120	0x3a894137	0.0010471706
121	0xbbad2155	-0.0052835145
122	0xbb43d3b8	-0.0029880833
123	0x3f538b2a	0.8263422
124	0x3ccf0861	0.02527255
125	0xbf2c31bf	-0.67263407
126	0xba85c729	-0.0010206449
127	0xbd9b969a	-0.07597084
128	0x3e6e5ecd	0.23278351
129	0xbcb42a60	-0.021992862
130	0xbc89040c	-0.016725563
131	0x3edde7f8	0.4334104
132	0x3fc37a97	1.5271786
133	0x3a0959de	0.00052395265
134	0x3cbe0892	0.023197446
135	0xbd7d24b8	-0.061802596
136	0x400c0a05	2.1881115
137	0xba85778e	-0.0010182725
138	0xbcb1aff1	-0.02169034
139	0x3eba5b0c	0.36397588
140	0x3f2089fd	0.62710553
141	0x3f01ddd1	0.5072909
142	0xbaeada49	-0.0017917837
143	0xbd16b04a	-0.036789216
144	0xbe9ebeb2	-0.31004864
145	0x3f7a64da	0.9781014
146	0x3eb31616	0.34977788
147	0xbf826694	-1.0187554
148	0xbcfcc1f9	-0.030854212
149	0x3e95b8cc	0.2924255
150	0xbb9cdd26	-0.004787105
151	0x3b887d8a	0.004165356
152	0x3fa1059f	1.257984
153	0xbc80fb43	-0.01574481
154	0xbf072915	-0.5279706
155	0xbc634517	-0.013871453
156	0x3e616048	0.22009385
157	0x3c4fcf90	0.012683764
158	0x3c5abf88	0.013351329
159	0xbeb18d22	-0.34677988
160	0x3d41ee93	0.047346663
161	0x3d68f182	0.056870945
162	0xbe382df0	-0.17986274
163	0x3f62142e	0.8831204
164	0xbba4afe0	-0.0050258487
165	0xbc819b45	-0.015821109
166	0x3fb2e306	1.3975532
167	0x3cba13ec	0.022714578
168	0xbe7ce2dd	-0.24695916
169	0xbd2a07a6	-0.0415112
170	0xbcae17b5	-0.021251539
171	0xbf54954c	-0.8304031
172	0xbbd7b831	-0.0065832366
173	0x3f80acac	1.0052695
174	0xbd374274	-0.04474111
175	0xbc31068a	-0.010804782
176	0xbef81b18	-0.4845817
177	0xbf2e077b	-0.67980164
178	0xbbcb8386	-0.006210747
179	0xbe895124	-0.26819718
180	0x3eaa486b	0.33258376
181	0xbe8fe2c5	-0.281027
182	0xbd6c55b4	-0.05769892
183	0xbb0213dc	-0.0019848263
184	0x3c23e0df	0.010002344
185	0xbcb2927d	-0.021798367
186	0x3fdc7301	1.7222596
187	0x3dbef898	0.09324759
188	0xbd2964c0	-0.04135585
189	0x3fb6b9a9	1.4275409
190	0x3edba0a1	0.42895988
191	0x3e7bf441	0.24604894
192	0x3bca3fe7	0.0061721685
193	0x3f53b732	0.8270141
194	0x3b614020	0.0034370497
195	0x3c5d57ed	0.013509733
196	0x3b95af07	0.004567984
197	0xbf31336d	-0.69219095
198	0x3e09c164	0.13452679
199	0x3d2fc32b	0.042910736
200	0xbe883801	-0.26605228
201	0x3fa1134d	1.2584015
202	0x3eda9dd3	0.42698535
203	0x3e68c8ff	0.22732924
204	0x3ed4d7e9	0.41570976
205	0x3e722784	0.23647887
206	0x3ec11a16	0.37715214
207	0x3f143c23	0.5790426
208	0xbcb0235b	-0.021501234
209	0xbd069a00	-0.03286171
210	0x3d8cd9cd	0.0687748
211	0x3dbc9dc7	0.09209781
212	0xbed7066e	-0.41997093
213	0xba36a613	-0.0006967496
214	0xbcbbc48d	-0.022920871
215	0xbfbab4ae	-1.4586389
216	0x3f0185a0	0.5059452
217	0x3ebb5e79	0.36595514
218	0xbc93d5ff	-0.018046377
219	0x3de9885b	0.11402961
220	0x3efefe02	0.49803168
221	0x3f577313	0.84159964
222	0xbf8abc4b	-1.0838712
223	0x3c062761	0.0081881
224	0xbf02a479	-0.51032215
225	0xbd6533b3	-0.055957507
226	0xbe93c48c	-0.2886089
227	0x3d885e3e	0.066586
228	0x3c5c6275	0.013451208
229	0x3f71eae2	0.9449903
230	0x3bfd1622	0.0077235857
231	0x3e8349f7	0.25642368
232	0x3f42172b	0.758166
233	0x3fafa613	1.3722557
234	0x3f83814b	1.0273832
235	0x3bd645bc	0.0065390747
236	0x3f5070b3	0.81421965
237	0x3e91aee7	0.28453752
238	0x3d92dbb6	0.07170813
239	0x3d625391	0.055255476
240	0xbb41b613	-0.0029557988
241	0x3df5f30c	0.12009248
242	0x3f60b96a	0.8778292
243	0xbe859dd6	-0.26096982
244	0x3c62f030	0.0138512105
245	0x3c1926b8	0.00934761
246	0xbf2f9344	-0.68584085
247	0x3fdf292f	1.7434443
248	0xbbf0d482	-0.0073495517
249	0x3d9a465c	0.07532951
250	0xbc17608d	-0.009239328
251	0x3f44075e	0.7657374
252	0x3d0a14a4	0.03371109
253	0xbf345882	-0.7044755
254	0x3a0e2eb2	0.0005423828
255	0xbf2c9b5f	-0.6742458

b3 f4 [2]
0	0x3f8051c2	1.002495
1	0x3f70d01e	0.9406756
